src/dqn/solution/checkpoint.pth (torch_old, 20993 bytes, 6 tensors)

fc1.weight f4 [64, 8]
0.06834544 -0.119923376 -0.48721755 -0.5177948 0.38145477 0.44790557 0.11084624 0.42220756
0.07405768 0.46445382 -0.5606282 -0.09303827 0.26188397 -0.7436715 0.027353233 0.17013834
-0.20946117 0.17465821 -0.49268925 0.003713182 1.0440507 0.22901769 0.51249164 0.4642731
0.32035032 -0.12966323 0.72321016 -0.2201239 -0.44849792 -0.4085644 0.16443807 0.5569004
-1.4956758 -1.2859675 -0.37002635 -0.6085143 0.2844156 0.089808576 0.13815336 0.04513643
0.024880568 -0.85043067 1.0823436 -0.8363713 -1.2902714 -0.3847483 0.2011112 0.19670752
-0.05116106 -0.2881242 0.654183 0.17973423 0.33169186 1.0534348 0.3201465 -0.12324736
-0.06650567 -1.3706805 -0.6892192 -0.610341 0.67141765 -0.14386418 0.0043103853 0.24669051
-0.19110473 -0.24887846 0.17440754 -0.04638866 -0.0058570965 0.8300292 0.3337962 -0.06612224
0.30089667 1.0367484 1.8966471 0.41304374 -0.7207029 0.056459785 -0.120407924 -0.20934781
-0.3042153 1.068994 0.3729163 -1.7206388 0.36685944 0.12430944 0.3094398 0.019283626
-0.9914448 -0.39668182 0.3707212 -0.7709353 -0.10180518 0.114977084 -0.12866318 -0.095447764
-0.10175872 -0.13885875 0.08659094 -0.1846547 -0.48386267 0.49368396 -0.043177895 -0.6905153
-0.68443674 -0.30929667 0.077293694 -0.5709285 0.74661857 -0.04694741 0.067490734 0.34464929
-0.28354484 1.1367023 0.11034527 -1.6054409 -0.14274266 0.2974711 0.48766774 0.25450075
0.3245434 0.5533865 -0.3337226 1.7120508 -0.011349235 -1.179906 -0.8213965 -0.22977762
-1.0568295 -1.1024938 -0.5447268 -0.8898223 -1.0438236 -0.0069574234 0.33645785 0.045396797
-0.3636601 0.17741671 0.83858156 0.673229 -0.41519427 0.6297432 0.7166233 -0.18597798
-0.19834499 0.015383296 -0.113873936 -0.09931066 0.1531769 -0.7297526 -1.0275456 -0.5347486
-0.3794657 1.0359653 -0.13731474 -1.9411347 0.31683874 -0.4621022 0.039845806 0.011829142
-0.26454607 -0.8486232 -0.24350493 -0.9339088 -0.3044868 0.16064808 -0.26519284 -0.13763672
-0.32937467 -0.44381276 0.023920748 -0.7856106 0.4488486 0.4007302 0.13385807 0.44054416
-0.23840268 -2.6057029 0.6507824 -1.6436648 -1.169057 -0.27575332 0.28855336 -0.07472958
0.78364706 0.13980983 0.50881517 0.21269828 -0.315242 -0.10162266 0.46280363 0.26510847
-0.57065046 -1.2003572 -0.9076452 -0.5999022 -0.6002676 0.18577532 -0.06728375 -0.14863624
-0.37404665 -0.6365776 -0.6029498 -0.5988821 -0.007589551 -0.06491189 0.12601024 0.51723135
0.85516566 -1.6673208 -0.32147107 -0.61054724 -0.5609272 -0.021065693 0.02706892 0.16914253
0.34858543 -1.3312796 0.7610989 -0.7617865 -0.5310875 0.18678358 -0.0068837507 0.27125564
-0.0936824 0.30578497 0.37388512 -0.70681244 2.3883805 0.21825314 -0.48627904 0.39244235
-0.097959235 1.0353256 0.021832407 -0.42301777 1.1167231 -1.51692 -0.12711012 0.27470177
0.32365695 0.38400432 -0.1091076 0.18062407 -0.16732794 -1.0574148 0.37660998 0.1598504
-1.0482866 -0.046792984 0.3088753 0.78782576 1.0879488 0.25763455 -0.014452229 -0.07114893
00000000: b2f8 8b3d 639a f5bd 9474 f9be 338e 04bf
00000010: 0a4e c33e e153 e53e 5a03 e33d 972b d83e
00000020: 8eab 973d e4cc ed3e 5485 0fbf d98a bebd
00000030: a815 863e 4161 3ebf e313 e03c bf38 2e3e
00000040: fd7c 56be 9ad9 323e c441 fcbe db58 733b
00000050: 74a3 853f 9d83 6a3e a732 033f 34b5 ed3e
00000060: f504 a43e 70c6 04be 4d24 393f 2968 61be
00000070: 85a1 e5be 5a2f d1be 7462 283e 0691 0e3f
00000080: 4e72 bfbf 959a a4bf 1874 bdbe 98c7 1bbf
00000090: ec9e 913e 8fed b73d 1378 0d3e fae0 383d
000000a0: 55d2 cb3c d3b5 59bf 3c8a 8a3f 6e1c 56bf
000000b0: 9d27 a5bf bbfd c4be 18f0 4d3e b26d 493e
000000c0: 428e 51bd 0485 93be 8978 273f 400c 383e
000000d0: 84d3 a93e f4d6 863f 3eea a33e 1d69 fcbd
000000e0: 2034 88bd 7572 afbf ab70 30bf 4f3f 1cbf
000000f0: 07e2 2b3f 2251 13be 223e 8d3b 709c 7c3e
00000100: f5b0 43be ffd9 7ebe e497 323e 0902 3ebd
00000110: e3ec bfbb cb7c 543f 56e7 aa3e 196b 87bd
00000120: 210f 9a3e 2cb4 843f 55c5 f23f 787a d33e
00000130: fc7f 38bf 6042 673d 6e98 f6bd 465f 56be
00000140: 1cc2 9bbe ccd4 883f e3ee be3e e43d dcbf
00000150: 00d5 bb3e f395 fe3d e56e 9e3e b2f8 9d3c
00000160: 54cf 7dbf e119 cbbe 2bcf bd3e 045c 45bf
00000170: 3c7f d0bd 1b79 eb3d 48c0 03be 1e7a c3bd
00000180: e066 d0bd fd30 0ebe 9756 b13d 1f16 3dbe
00000190: d9bc f7be 25c4 fc3e 4edb 30bd 9cc5 30bf
000001a0: 3f37 2fbf 225c 9ebe 284c 9e3d 5f28 12bf
000001b0: 6522 3f3f ed4b 40bd 9538 8a3d df75 b03e
000001c0: ca2c 91be 767f 913f b3fc e13d 167f cdbf
000001d0: 222b 12be 224e 983e 96af f93e ec4d 823e
000001e0: 8d2a a63e bdaa 0d3f b0dd aabe 7b24 db3f
000001f0: 24f2 39bc 2907 97bf 0b47 52bf d34a 6bbe
00000200: 3046 87bf 841e 8dbf 3773 0bbf 65cb 63bf
00000210: 039c 85bf 19fb e3bb 3444 ac3e fef1 393d
00000220: a831 babe baac 353e 48ad 563f bc58 2c3f
00000230: 5894 d4be da36 213f a074 373f 0371 3ebe
00000240: f31a 4bbe 380a 7c3c bd36 e9bd 6363 cbbd
00000250: 68da 1c3e 11d1 3abf 9d86 83bf 49e5 08bf
00000260: 5449 c2be 839a 843f 3c9c 0cbe 1a77 f8bf
00000270: b038 a23e a998 ecbe 5b35 233d 05cf 413c
00000280: 9572 87be 5f3f 59bf 5b59 79be a614 6fbf
00000290: b2e5 9bbe ee80 243e 5bc7 87be a4f0 0cbe
000002a0: cca3 a8be 6d3b e3be 72f5 c33c c71d 49bf
000002b0: 7ccf e53e 822c cd3e 1712 093e 018f e13e
000002c0: d51f 74be d6c3 26c0 ad99 263f 9c63 d2bf
000002d0: a9a3 95bf 8a2f 8dbe 44bd 933e d20b 99bd
000002e0: 189d 483f 4f2a 0f3e b641 023f 94cd 593e
000002f0: 6667 a1be 8b1f d0bd 99f4 ec3e 4cbc 873e
00000300: 2616 12bf 4ea5 99bf 705b 68bf 3193 19bf
00000310: 23ab 19bf e33b 3e3e 10cc 89bd 1934 18be
00000320: 0b83 bfbe c0f6 22bf eb5a 1abf 5650 19bf
00000330: c5b1 f8bb 86f0 84bd d408 013e 4669 043f
00000340: 23ec 5a3f c56a d5bf db97 a4be d34c 1cbf
00000350: ed98 0fbf f691 acbc a4bf dd3c b333 2d3e
00000360: ca79 b23e 5f67 aabf 61d7 423f 7104 43bf
00000370: 5af5 07bf 3244 3f3e 1691 e1bb 05e2 8a3e
00000380: 8fdc bfbd d98f 9c3e df6d bf3e a9f1 34bf
00000390: 3adb 1840 c07d 5f3e 91f9 f8be 34ee c83e
000003a0: da9e c8bd 8d85 843f e0d9 b23c c995 d8be
000003b0: c8f0 8e3f 6f2a c2bf 2829 02be b6a5 8c3e
000003c0: 5db6 a53e 379c c43e ce73 dfbd 84f5 383e
000003d0: 0458 2bbe 5e59 87bf 06d3 c03e d3af 233e
000003e0: 412e 86bf 00aa 3fbd e724 9e3e f3ae 493f
000003f0: e841 8b3f ade8 833e 0bc9 6cbc 88b6 91bd

fc1.bias f4 [64]
-0.2793629 -0.2381106 -0.061771568 -0.35717458 -0.20033641 -0.40461642 0.008857766 -0.25270697
0.1373205 0.3361824 1.1404144 0.008107326 -0.6082685 -0.3711415 1.4057138 -0.042487737
-0.043567136 -0.38697737 0.23270041 1.3141083 -0.41396165 -0.19131897 -0.20671576 -0.32965967
-0.20976003 -0.22492859 -0.21216674 -0.285166 -0.23666842 -0.0028287878 -0.28565392 0.023103202
-0.3782948 0.24797446 -0.3449547 -0.23699157 0.43598324 0.4959577 -0.33543846 -0.15877526
-0.20496097 -0.35336873 0.1608839 -0.25585818 -0.42619565 0.23702978 0.739432 0.7860965
0.50323015 -0.37459248 -0.0852595 1.1679101 -0.38291338 -0.013045265 -0.12467521 -0.30654356
-0.30838153 0.011186807 -0.014548556 0.103358746 -0.26275668 -0.2362444 0.80356604 -0.195992
00000000: a708 8fbe 44d3 73be 2f04 7dbd 96df b6be
00000010: fd24 4dbe e229 cfbe 2a20 113c cf62 81be
00000020: bf9d 0c3e 1920 ac3e 19f9 913f 97d4 043c
00000030: 7cb7 1bbf 4206 bebe 6eee b33f 9f07 2ebd
00000040: 7473 32bd e621 c6be 0449 6e3e b334 a83f
00000050: c8f2 d3be 1fe9 43be 4cad 53be 27c9 a8be
00000060: 55cb 56be ae53 66be 3d42 59be 4701 92be
00000070: 3559 72be 2f63 39bb 3b41 92be ed42 bd3c
00000080: dbaf c1be 04ed 7d3e e79d b0be ebad 72be
00000090: 3239 df3e 2bee fd3e 97be abbe fb95 22be
000000a0: 4ae1 51be bfec b4be c0be 243e d8ff 82be
000000b0: 5136 dabe efb7 723e 6a4b 3d3f 9f3d 493f
000000c0: b1d3 003f 96ca bfbe 889c aebd 147e 953f
000000d0: 390d c4be cfbb 55bc b755 ffbd 47f3 9cbe
000000e0: 2fe4 9dbe df48 373c 115d 6ebc c0ad d33d
000000f0: 0b88 86be 0dea 71be 81b6 4d3f 20b2 48be

fc2.weight f4 [64, 64]
-0.15524621 0.45432526 0.12578237 0.38512737 0.54017615 0.35077956 -0.07992885 0.3316627
-0.081166625 0.75072426 0.075055435 -0.1452068 0.125135 0.58004874 0.08276176 0.06711353
0.076840356 0.5073562 0.4729353 0.285548 0.6880078 0.19577295 0.37476218 0.37733117
0.682976 0.039541695 0.88799995 0.3190776 -1.0515649 -0.13889761 0.31708556 -0.0027612639
0.1968453 -0.057778835 0.5119233 -0.05351671 0.277071 -0.32913637 0.04433936 0.8096758
-0.020337248 0.30211404 0.68135184 0.95056033 0.7786849 0.15606557 -0.25456244 -0.020293454
0.72293067 1.4256939 -0.5298732 0.029807817 0.063068025 0.26264682 0.39984518 0.7484824
1.2754132 0.5597194 0.24394214 -0.63885933 0.5287586 0.046909083 -0.93274623 0.6706298
-0.0937948 -0.0038467303 0.02002431 -0.018742166 -0.10090358 0.09572803 -0.087966524 0.083002225
-0.11954132 -0.044594944 0.0406222 -0.06744378 0.08495134 -0.10556149 -0.13028753 -0.070891246
0.0018091695 0.098607175 -0.08746155 0.016163256 -0.04726128 -0.04589441 0.07559655 -0.116886675
-0.007303305 0.09793528 -0.012040856 0.0766756 -0.040026467 0.07092445 -0.14921798 -0.027792815
-0.042204514 0.020346314 0.02871936 0.08056973 -0.02924495 -0.030519335 0.085601404 -0.048347987
0.0895284 -0.10308236 -0.03413545 -0.0200719 0.040709928 0.069245264 -0.019812971 -0.1283391
0.061936527 0.023814928 0.03568672 -0.098065384 0.06592298 0.0977036 -0.01628344 -0.13227166
0.06832237 -0.11625539 0.0015842067 -0.0049725245 -0.07389709 0.02899798 -0.124810286 0.008195799
-0.0796081 0.24193716 0.17105153 0.33595058 0.70451415 0.46188492 0.009406128 0.2605905
-0.015386724 0.5069314 0.23663016 0.10056572 0.11298373 0.5848129 0.20111345 -0.012594632
0.39481595 0.20374972 0.030206619 0.15166007 0.587661 0.17472625 0.2631103 0.16637643
1.1573268 0.039241835 1.1608272 0.4448693 -0.7367659 -0.2021096 0.22026788 0.52133745
0.42679074 0.36457682 0.55640817 -0.29058635 0.47668812 -0.32737648 0.09910545 0.6471128
-0.21744168 0.55226773 0.4956131 0.9183103 0.8581166 -0.013901309 -0.68992007 0.010125447
0.72909814 1.6683795 -1.1517413 0.09149911 0.16095668 0.7401543 0.27784428 0.28500736
0.76121074 0.6825434 0.11146172 -0.36290556 0.55582887 0.07676064 -0.96506524 0.6182881
-0.06590032 0.10881098 0.14511974 0.060487267 1.194933 0.5528173 0.28068408 0.3988304
0.43388066 0.5724365 0.29983318 0.38994762 0.086501025 0.67144316 0.13461879 -0.20723629
0.3678752 0.33720198 -0.15669675 0.041235555 0.39845926 0.3089255 0.058264628 0.27128989
1.6495966 0.14213498 1.2102951 0.52770036 -0.89431554 -0.25336787 0.45127347 0.39255273
0.43738738 0.4080993 0.4413681 -0.39097965 0.23397855 -0.20367326 0.12429814 0.33881798
-0.26795048 0.52250236 0.11999483 0.9938251 0.6198038 -0.1297487 -0.6072694 0.13909888
0.16655771 1.4915496 -1.0548486 0.13146177 0.53064924 1.0360231 0.5888383 0.5341009
0.8541285 0.7526457 0.23956291 -0.7878441 0.40278032 0.3162037 -0.910662 0.3191918
00000000: ddf8 1ebe 529d e83e 18cd 003e 6a2f c53e
00000010: fc48 0a3f 6199 b33e bdb1 a3bd b2cf a93e
00000020: b03a a6bd 772f 403f aab6 993d 17b1 14be
00000030: 6423 003e 137e 143f ff7e a93d d272 893d
00000040: 7a5e 9d3d 19e2 013f 9324 f23e 5933 923e
00000050: 4721 303f b478 483e d4e0 bf3e 8d31 c13e
00000060: 84d7 2e3f 79f6 213d f753 633f 245e a33e
00000070: ae99 86bf 2d3b 0ebe 0a59 a23e 52f6 34bb
00000080: d091 493e 80a9 6cbd 680d 033f 5634 5bbd
00000090: 40dc 8d3e 9084 a8be 309d 353d ea46 4f3f
000000a0: 4d9a a6bc b1ae 9a3e 136d 2e3f ec57 733f
000000b0: e557 473f a7cf 1f3e 0256 82be 753e a6bc
000000c0: fc11 393f 237d b63f c5a5 07bf 862f f43c
000000d0: cf29 813d a579 863e 82b8 cc3e 8b9c 3f3f
000000e0: bd40 a33f c549 0f3f f8cb 793e 498c 23bf
000000f0: b95c 073f bd23 403d 75c8 6ebf 65ae 2b3f
00000100: 7d17 c0bd 6d19 7cbb 060a a43c 2c89 99bc
00000110: 89a6 cebd 0f0d c43d cb27 b4bd 12fd a93d
00000120: 14d2 f4bd 30a9 36bd 7763 263d f71f 8abd
00000130: f8fa ad3d 9f30 d8bd 186a 05be 6e2f 91bd
00000140: a821 ed3a 8ff2 c93d 0b1f b3bd ce68 843c
00000150: 0b95 41bd c7fb 3bbd 5dd2 9a3d 4862 efbd
00000160: 9050 efbb 4b92 c83d 0347 45bc 1908 9d3d
00000170: cbf2 23bd d740 913d 99cc 18be c2ad e3bc
00000180: a4de 2cbd 50ad a63c dd44 eb3c be01 a53d
00000190: 1b93 efbc af03 fabc ca4f af3d 8a08 46bd
000001a0: aa5a b73d d81c d3bd 9dd1 0bbd d36d a4bc
000001b0: 74bf 263d 76d0 8d3d d04e a2bc 536b 03be
000001c0: 28b1 7d3d 8617 c33c 3d2c 123d 81d6 c8bd
000001d0: a102 873d d318 c83d d964 85bc 3972 07be
000001e0: 99ec 8b3d 4e17 eebd 28a5 cf3a 8ff0 a2bb
000001f0: 5c57 97bd 2c8d ed3c 899c ffbd ac47 063c
00000200: 9209 a3bd 60be 773e 2228 2f3e b701 ac3e
00000210: 0a5b 343f 2e7c ec3e 291c 1a3c 1e6c 853e
00000220: 9918 7cbc 42c6 013f 2d4f 723e 66f5 cd3d
00000230: 0464 e73d 4cb6 153f aff0 4d3e b759 4ebc
00000240: 5125 ca3e c4a3 503e df73 f73c c74c 1b3e
00000250: f470 163f 70eb 323e 65b6 863e 955e 2a3e
00000260: 4923 943f 0cbc 203d fc95 943f e9c5 e33e
00000270: b19c 3cbf d2f5 4ebe e78d 613e 5f76 053f
00000280: 5184 da3e d0a9 ba3e c470 0e3f bcc7 94be
00000290: 7710 f43e e49d a7be ccf7 ca3d 2fa9 253f
000002a0: 08a9 5ebe 6b61 0d3f 00c1 fd3e 6216 6b3f
000002b0: 88ad 5b3f 51c2 63bc 9a9e 30bf 34e5 253c
000002c0: 2da6 3a3f 768d d53f 426c 93bf e363 bb3d
000002d0: d4d1 243e c17a 3d3f 9b41 8e3e 7cec 913e
000002e0: b5de 423f 2abb 2e3f 0b46 e43d c2ce b9be
000002f0: cd4a 0e3f af34 9d3d 840e 77bf 2148 1e3f
00000300: bff6 86bd 4bd8 de3d 459a 143e 7fc1 773d
00000310: 91f3 983f 6f85 0d3f d3b5 8f3e 8033 cc3e
00000320: 9b25 de3e 338b 123f bc83 993e 37a7 c73e
00000330: 7327 b13d b3e3 2b3f 82d9 093e c035 54be
00000340: 235a bc3e bda5 ac3e 1d75 20be 9de6 283d
00000350: da02 cc3e 7c2b 9e3e e4a6 6e3d 82e6 8a3e
00000360: fb25 d33f d58b 113e f3ea 9a3f 5f17 073f
00000370: ddf1 64bf 6fb9 81be 510d e73e acfc c83e
00000380: 3df1 df3e 64f2 d03e 00fb e13e 7c2e c8be
00000390: 1398 6f3e b98f 50be 0690 fe3d 8d79 ad3e
000003a0: ce30 89be b7c2 053f d9bf f53d 526b 7e3f
000003b0: 76ab 1e3f d8dc 04be 0276 1bbf f06f 0e3e
000003c0: 1b8e 2a3e 19eb be3f 4705 87bf ea9d 063e
000003d0: a1d8 073f 689c 843f 1bbe 163f d6ba 083f
000003e0: 2aa8 5a3f 63ad 403f fb4f 753e 27b0 49bf
000003f0: 3939 ce3e 74e5 a13e 2521 69bf 1c6d a33e

fc2.bias f4 [64]
0.17236173 -0.14554162 -0.08552895 0.07073196 0.17155978 -0.0073949094 -0.011743792 0.16067952
0.015287867 0.52377397 0.0453279 0.08959681 0.009891884 -0.07371472 0.23320861 1.2607298
0.058663856 -0.04646676 0.06267029 0.014282452 0.017758422 -0.27048805 -0.036335 -0.06470344
-0.04241352 -0.14450596 -0.092660464 -0.0758652 0.03909282 -0.11027245 0.515676 0.96498877
-0.079091504 -0.009220719 -0.094742425 -0.15139738 0.4781151 -0.0020733853 -0.043302212 0.18601106
-0.01124668 -0.42256203 0.86393905 0.20651859 -0.10669543 0.06644258 -0.10804804 -0.043308534
-0.01606253 -0.030313453 0.16326252 0.09659351 0.6202482 0.3214033 -0.04033032 0.64145046
0.043008346 0.07126553 -0.10290877 0.00790618 0.124078035 -0.08425114 1.1963702 0.04353526
00000000: 987f 303e dd08 15be cd29 afbd ebdb 903d
00000010: 5ead 2f3e ff50 f2bb 0969 40bc 2c89 243e
00000020: f679 7a3c 0d16 063f c0a9 393d 887e b73d
00000030: 9211 223c bef7 96bd 3dce 6e3e 985f a13f
00000040: 8349 703d ee53 3ebd 4859 803d f200 6a3c
00000050: 1c7a 913c 697d 8abe 02d4 14bd 3d83 84bd
00000060: cdb9 2dbd 5ff9 13be c5c4 bdbd 375f 9bbd
00000070: cb1f 203d 86d6 e1bd 5803 043f 8109 773f
00000080: bafa a1bd 8012 17bc 5108 c2bd ea07 1bbe
00000090: 81cb f43e a2e1 07bb a95d 31bd af79 3e3e
000000a0: ff43 38bc 0d5a d8be 1c2b 5d3f 9c79 533e
000000b0: 2283 dabd 0c13 883d 4a48 ddbd 4a64 31bd
000000c0: 9195 83bc eb53 f8bc 4a2e 273e d1d2 c53d
000000d0: 96c8 1e3f f98e a43e 6831 25bd 1936 243f
000000e0: 8529 303d aaf3 913d d5c1 d2bd ec88 013c
000000f0: a01c fe3d dd8b acbd a922 993f 0752 323d

fc3.weight f4 [4, 64]
-0.42266157 0.025318382 -0.66842604 -0.6782335 -1.2682813 -0.6527436 0.06595444 1.2156806
-0.09717506 1.3961164 -1.0332205 -0.8284417 -1.3353773 -0.55179596 -1.6863371 1.9090803
0.98120975 -0.7576814 3.5380123 -0.41140425 -0.9865698 -1.8089639 1.2629826 -0.83924
-0.5171576 0.10071702 -1.0632347 -0.6740608 -0.75203735 -1.0022416 0.6192676 2.2941024
-0.6975059 -0.43191403 -0.62465024 -0.28601396 -1.3446884 -0.55825084 -0.580979 -1.5508687
-0.5948092 -0.8124682 1.1795092 -0.57155377 0.044856343 -0.032703206 0.07452555 -0.039137445
-0.6850999 -1.0489678 -0.97758085 -0.1985252 1.409012 -0.21704471 -0.74797934 1.0993879
-1.033685 -0.63138366 0.0030442472 -0.7114555 -1.0205755 -0.502754 1.7999933 -0.5156472
-0.14207394 0.025473187 -0.39608377 -0.5861207 -0.32601073 -0.44451508 -0.015391694 1.1458884
0.11132081 1.6713573 -0.44872302 -1.1789455 -0.15947746 -0.5902686 -1.0469052 1.4687805
0.6814001 -0.3762004 3.62837 -0.54757166 -0.16266716 -0.67159325 0.8519323 -0.608938
-0.61592203 0.070061505 -0.5692569 -0.55689675 -0.79334456 -0.8231017 -0.9924638 2.6255002
-0.6536059 -1.5148394 -0.58806044 -0.20114806 -1.9586515 -0.8361762 -0.14994963 -1.2299703
-0.72744876 0.07007643 1.4631083 0.30894345 -0.067780405 0.010687441 0.10204086 -0.044251114
-0.4625925 -0.7848427 -1.4213836 -0.14476867 1.4755696 -0.10816226 -1.1363635 1.2926646
-0.7152744 -0.45308372 0.0024314364 -0.9721161 -1.4687318 -0.4012624 1.6541262 -0.6236978
-1.0118486 -0.1030541 -0.7232519 -0.2913296 -0.031556625 -0.5084124 0.051698685 3.0413249
0.07170076 -0.8862302 -0.46828756 -1.0123264 -0.5374001 -0.66160846 -1.4352473 1.6630555
2.2099047 -0.8918631 2.329901 -0.73512197 -0.3214711 -1.0222747 -0.88217455 -0.27706176
-0.6407085 0.10866578 -2.2470407 -0.72793347 -0.38342863 -0.3471716 -0.7071448 2.1344783
-0.5435766 -0.24520637 -0.51120836 -1.4765567 -0.81183153 -0.6504607 -0.66670734 -0.8252379
-0.6866133 -1.1722726 0.07336417 -0.09145447 0.024508178 -0.0031429976 -0.058554832 -0.12385093
-0.5928683 -1.0161879 -1.5383065 -1.2550057 1.6517769 -1.8097584 -0.43715554 1.8984038
-0.34503403 -0.7397532 0.06956205 -0.35412234 -1.0083784 -0.6465674 2.0958858 -0.66691446
-0.5824528 0.08665315 -0.5274768 -0.66767454 -0.4739156 -0.6632662 0.05673653 0.9764539
0.01797834 2.3571932 -0.78839713 -1.2115583 -0.87362206 -0.6482182 -1.0321301 1.9737827
0.5353591 -0.5345165 3.3691857 -0.5456202 -0.72159666 -0.8663763 1.2368469 -0.35257673
-0.5753443 0.06424716 0.12838262 -0.74310696 -0.5425691 -0.6236658 0.2984883 2.0895686
-0.52838105 0.06458179 -0.6366135 -0.50675297 -1.9697723 -0.5681513 -0.7931098 -0.5446537
-0.5175214 -1.6122426 1.3851185 -1.6592426 0.1017421 -0.087780416 0.039382212 -0.00371304
-0.6516765 -0.04036501 -0.71555954 -0.3343385 1.8638602 -0.6041676 -0.6390599 0.9404786
-0.4362182 -0.61385536 0.017339494 -0.6300523 -1.3509084 -0.717841 1.8072807 -0.57596993
00000000: 1967 d8be 7f68 cf3c f81d 2bbf b6a0 2dbf
00000010: 0b57 a2bf 341a 27bf 1f13 873d 6c9b 9b3f
00000020: b803 c7bd f1b3 b23f 9240 84bf c114 54bf
00000030: a5ed aabf 8042 0dbf e5d9 d7bf be5c f43f
00000040: 9030 7b3f 69f7 41bf cb6e 6240 94a3 d2be
00000050: d78f 7cbf 218c e7bf 6aa9 a13f 6fd8 56bf
00000060: 7164 04bf ba44 ce3d 1318 88bf 408f 2cbf
00000070: 8585 40bf 7449 80bf 5288 1e3f 93d2 1240
00000080: bf8f 32bf d623 ddbe 14e9 1fbf 6c70 92be
00000090: c01e acbf 87e9 0ebf 0abb 14bf de82 c6bf
000000a0: 6a45 18bf eafd 4fbf 28fa 963f 5951 12bf
000000b0: 49bb 373d ccf3 05bd daa0 983d 964e 20bd
000000c0: b562 2fbf 9444 86bf bd42 7abf 314a 4bbe
000000d0: 815a b43f f840 5ebe 937b 3fbf beb8 8c3f
000000e0: ca4f 84bf 5ca2 21bf fe81 473b f321 36bf
000000f0: 38a2 82bf 7cb4 00bf 2e66 e63f 7401 04bf
00000100: d57b 11be 25ad d03c 7ecb cabe 020c 16bf
00000110: e1ea a6be 7b97 e3be 722d 7cbc 79ac 923f
00000120: 2afc e33d 09ef d53f 06bf e5be b0e7 96bf
00000130: 0f4e 23be d81b 17bf fd00 86bf 0001 bc3f
00000140: 3d70 2e3f 579d c0be 3737 6840 a82d 0cbf
00000150: 3892 26be 89ed 2bbf 3c18 5a3f 5ce3 1bbf
00000160: 11ad 1dbf 687c 8f3d d2ba 11bf c990 0ebf
00000170: a118 4bbf cbb6 52bf 1c12 7ebf 3208 2840
00000180: b752 27bf 42e6 c1bf 218b 16bf c2f9 4dbe
00000190: 18b5 fabf a50f 56bf 658c 19be ab6f 9dbf
000001a0: 153a 3abf 3b84 8f3d 2247 bb3f d62d 9e3e
000001b0: 74d0 8abd 601a 2f3c ccfa d03d a840 35bd
000001c0: edd8 ecbe 74eb 48bf e6ef b5bf 3d3e 14be
000001d0: 77df bc3f 2d84 ddbd 5c74 91bf 0976 a53f
000001e0: 391c 37bf 97fa e7be bc58 1f3b 9adc 78bf
000001f0: 67ff bbbf 4472 cdbe 68ba d33f a9aa 1fbf
00000200: 4184 81bf 070e d3bd 0927 39bf 2729 95be
00000210: 8541 01bd 5127 02bf 00c2 533d 11a5 4240
00000220: d9d7 923d fbdf 62bf 63c3 efbe e993 81bf
00000230: 0e93 09bf 2c5f 29bf 2fb6 b7bf 01df d43f
00000240: 146f 0d40 2451 64bf 191d 1540 f430 3cbf
00000250: dc97 a4be e6d9 82bf 31d6 61bf 0adb 8dbe
00000260: 7905 24bf 2a8c de3d 84cf 0fc0 d959 3abf
00000270: c250 c4be 7ac0 b1be 7107 35bf 4b9b 0840
00000280: d627 0bbf 6117 7bbe 8dde 02bf cfff bcbf
00000290: 31d4 4fbf 9884 26bf 55ad 2abf ca42 53bf
000002a0: e4c5 2fbf 070d 96bf f43f 963d 7b4c bbbd
000002b0: 60c5 c83c c0fa 4dbb 31d7 6fbd 8ea5 fdbd
000002c0: 38c6 17bf 7212 82bf 3ae7 c4bf 07a4 a0bf
000002d0: 6d6d d33f 2aa6 e7bf dad2 dfbe e5fe f23f
000002e0: 4da8 b0be 7760 3dbf 8c76 8e3d 864f b5be
000002f0: 8b12 81bf 7185 25bf fe22 0640 e8ba 2abf
00000300: a01b 15bf 3577 b13d b808 07bf b8ec 2abf
00000310: 11a5 f2be d0cb 29bf 9064 683d e2f8 793f
00000320: 5047 933c 41dc 1640 65d4 49bf 5814 9bbf
00000330: b2a5 5fbf a1f1 25bf d71c 84bf e9a4 fc3f
00000340: 4b0d 093f 13d6 08bf bda0 5740 c4ad 0bbf
00000350: 8fba 38bf d6ca 5dbf 0051 9e3f f084 b4be
00000360: c449 13bf 0494 833d bc76 033e 423c 3ebf
00000370: cfe5 0abf 90a8 1fbf 75d3 983e 7ebb 0540
00000380: fb43 07bf 7543 843d 1af9 22bf 90ba 01bf
00000390: 8021 fcbf 5d72 11bf 3e09 4bbf 6d6e 0bbf
000003a0: 487c 04bf f75d cebf 904b b13f 1062 d4bf
000003b0: 2a5e d03d 38c6 b3bd 3e4f 213d 7956 73bb
000003c0: 45d4 26bf c855 25bd e92e 37bf 6a2e abbe
000003d0: f992 ee3f baaa 1abf 6e99 23bf 35c3 703f
000003e0: fe57 dfbe a025 1dbf 8e0b 8e3c 1c4b 21bf
000003f0: 91ea acbf 6ec4 37bf f954 e73f c472 13bf

fc3.bias f4 [4]
0.35919333 0.1406192 0.46504197 -0.16589722
00000000: 30e8 b73e 7bfe 0f3e fb19 ee3e f6e0 29be
