src/ddpg-pendulum/checkpoint_critic.pth (torch_old, 491028 bytes, 5 tensors)

fcs1.weight f4 [400, 3]
00000000: 15a6 55bf 130f 7dbe a413 333d 722d 86be
00000010: d711 c1be eb2b bdbd f489 993e 2a56 05bf
00000020: e61b 0a3f b571 07be e27d 6bbf ba29 37bc
00000030: 59ca 0fbf df80 1b3f 458e 473e bf14 35bd
00000040: 487c 3ebd b42b 3d3c a635 fdbe 5afd e6bd
00000050: ad96 1bbe 60e0 64bf aad7 f73e e6a2 113e
00000060: 80fc 173c d5ce 30be 14e8 abbd 2c3e 54bf
00000070: 41fd a93d bd40 213e 586c 68bf 8803 c6bf
00000080: 6c8b 89be 4062 00bf 6c42 113f 940a 253e
00000090: 7e9a d8be a448 643f d995 723e 5339 143d
000000a0: 3439 7a3c b0b0 0ebb ca34 29bf 8813 33bf
000000b0: 37c5 e9bd f3f6 a03d 2d68 71be e60e 86bd
000000c0: 68ce 253c f882 31bc 300d 01bd ca94 b3bc
000000d0: 0826 273c e8f4 d2bb 7b7b da3d 7026 3d3d
000000e0: ec9a 89ba 6051 baba 2c74 07bc e03f 0abc
000000f0: 472b 0d3d aaaf f2bc d012 a2bc efa0 0d3d
00000100: 8cc4 753c 1235 b33c 3af8 d6bd fc9b 10bf
00000110: cf0a 403d d854 d73b 095d 003d 53ce edbc
00000120: 0263 1ebe 14f4 82bf 522f 90bc eab1 543e
00000130: deb4 ebbf 474e d0be eb2b 76be 1f2e 3b3f
00000140: b73b f23e f2e9 35bf 50fc 133f 32b3 b73d
00000150: bea4 963c 9a6a bc3c 4847 49bd 3a69 febc
00000160: 2808 21bd 4e90 0cbd 0026 9ebc 22b4 da3c
00000170: d992 103d bf28 04c0 26f1 46bd 7891 01bf
00000180: 4d48 083d 8396 d6bc 0513 30bd b111 1ebd
00000190: 3dac 0dbe 0172 00bd 1d47 253d 4559 0cbd
000001a0: e8c4 833b e77d eb3f f7c2 663f 8be8 383d
000001b0: df9e 43bf bf87 16bf b674 46be 1e4e cdbd
000001c0: bd43 47be f151 5cbd 1f7e cd3c 55f8 dcbc
000001d0: 30c0 c9bc bf46 733f 9e13 5a3f 40c4 fbbd
000001e0: 91e2 0b3e 1ddb 083f 3edf aebc 3b6a 26bd
000001f0: 8957 1f3d c26a bb3c 6eb0 70be 6ec5 073f
00000200: acb8 11be aa9e c7bf dc2c 853f 559c abbe
00000210: e3a8 fcbf e3a1 1b3f 9244 0b3d 2592 2ebd
00000220: a0e5 31bd 1a36 aa3c 30c0 aebd dd7e 1b3c
00000230: 1ffd 75bc 0cb3 1ec0 a978 2e40 14aa 43bf
00000240: b088 983f 1f3f 5ebf 3405 17be 12e3 173f
00000250: 7943 893e 6c6f 003e 60c8 aabe 1e89 89be
00000260: bea2 a83d ca13 d53c 98b6 f8bb 8770 e0bc
00000270: 933e 19bd 667a c23c f60f 883c 2a88 9fbe
00000280: 4c3b c2be c009 a5bd ea61 42bc dc47 0dc0
00000290: 7a39 00bf ab2f 5c3d e43a 2c3c 1139 14bd
000002a0: 0d4e 57be 8290 133f 70c4 76bd 2a87 62bf
000002b0: 2c49 64bd e08e 7f38 f0a0 7fbf 5041 75be
000002c0: eeb3 4ebe 952e 6fbf bf47 683d dc06 48be
000002d0: 84fc 703c dfd1 0c3d 6048 213c 40ef 073c
000002e0: 8294 f13c 3a86 08bd 5df7 ebbe 0552 653f
000002f0: 79a0 1d3e 0034 e23b b8c7 1ebd 3a17 a4bc
00000300: b4f1 80bc e769 32bd 6e2c 27bd bece 57bf
00000310: 91d9 b03e 380b 1f3e 7d84 9fbb 81e1 be3b
00000320: 74c6 003d 7ace 15bf cb21 a7bd 79a6 31bd
00000330: 51bb 063d ab33 183d 7475 0cbd 0661 bd3f
00000340: 6dcb 1abf f9ad 1dbf 80e5 6b3a 2291 37bd
00000350: 900f 86bb 382e 1ebf 0920 dabe ca03 41be
00000360: ae53 98bd 6e15 8fbc 392c c8bd 3fdb ae3d
00000370: 8b27 bc3f 2905 9b3d db63 5abf d8e2 88bf
00000380: ec03 13bf ef54 443d 9e71 ba3c b23d 20bd
00000390: 3b9c 25bd 8dba 1dbd 0870 04bc 2138 1c3d
000003a0: 949a 0a3c 86b6 ae3c 0497 a9be 59ee 5d3e
000003b0: f16d de3d 5cfc 503c e141 143d e807 d2bb
000003c0: 1980 5abd fe78 ed3c 121a 70bb f5a4 15be
000003d0: 8a2c 88bf 7bdf e6bd e44d 883d 44f1 1bbc
000003e0: 7ce6 77bb 6684 603f 4198 9ebf 8d5b b4be
000003f0: e5d7 73be 2c54 f6be 2865 00be b9f3 2e3d
-0.83456546 -0.24712782 0.043719903 -0.26206547 -0.37708923 -0.09236892 0.29988062 -0.520846
0.5394882 -0.1322697 -0.91988957 -0.011179382 -0.56168133 0.60743517 0.19487865 -0.04420924
-0.046505243 0.011546064 -0.49454993 -0.11278792 -0.15194197 -0.8940487 0.48406726 0.14222297
0.009276509 -0.172664 -0.08393875 -0.82907367 0.083002575 0.15747352 -0.9079032 -1.5469828
-0.26864183 -0.5014992 0.56741977 0.16117316 -0.42305368 0.8917334 0.23689975 0.03618748
0.015272427 -0.0021772794 -0.66096175 -0.6995168 -0.11414569 0.07859602 -0.23574896 -0.065458104
0.010120012 -0.010834448 -0.031506717 -0.021921534 0.010201938 -0.0064378865 0.10668083 0.046179235
-0.0010498441 -0.0014214925 -0.008267444 -0.008438081 0.0344651 -0.029624779 -0.019784361 0.034577306
0.015000474 0.021875892 -0.10496564 -0.56488013 0.046885308 0.0065713935 0.031338725 -0.029029047
-0.15467456 -1.0230737 -0.01760069 0.20770994 -1.8414571 -0.4068472 -0.24040191 0.7311725
0.47311184 -0.710601 0.57806873 0.08969726 0.018389102 0.02300005 -0.049140245 -0.031056035
-0.03931442 -0.034317307 -0.01930523 0.026697222 0.035296295 -2.064987 -0.04856982 -0.5061259
0.033272076 -0.026194816 -0.04298689 -0.03859109 -0.13835235 -0.031358723 0.040351022 -0.03426482
0.004021276 1.8397797 0.9014124 0.045143645 -0.76414293 -0.5880088 -0.19380459 -0.10024665
-0.19459434 -0.053789083 0.025084553 -0.026973883 -0.024627775 0.95029825 0.85186183 -0.12293291
0.13660647 0.5345934 -0.021346685 -0.040628653 0.03890184 0.022878055 -0.23504803 0.5303563
-0.14230603 -1.5595295 1.0404315 -0.3351771 -1.973904 0.60793895 0.03400094 -0.042619843
-0.043431878 0.02077775 -0.085327506 0.009490696 -0.015013962 -2.4796782 2.7261145 -0.76431394
1.1916714 -0.86815065 -0.14748079 0.59330857 0.2680929 0.12542504 -0.33356 -0.26862425
0.082341656 0.026010413 -0.0075901262 -0.027397407 -0.03741319 0.023740005 0.016609173 -0.31158572
-0.37935865 -0.080585 -0.011864165 -2.207511 -0.500877 0.053756397 0.0105120875 -0.036187235
-0.21025868 0.57642376 -0.06024593 -0.88487494 -0.055733845 6.09298e-05 -0.99854946 -0.23950696
-0.20185825 -0.93430454 0.056709047 -0.19533867 0.014708642 0.034379836 0.009843916 0.008296788
0.02948976 -0.033331133 -0.4608716 0.89578277 0.15393247 0.0069031715 -0.038764685 -0.020030607
-0.015740253 -0.043558028 -0.040813856 -0.8429984 0.3454099 0.15531623 -0.0048680888 0.005825222
0.03143926 -0.58518183 -0.08160742 -0.04337165 0.032893483 0.03715865 -0.0342917 1.4795234
-0.60466653 -0.61593586 0.0008998737 -0.044816144 -0.0040912107 -0.61789274 -0.42602566 -0.18849102
-0.07437836 -0.017466273 -0.0977406 0.085379116 1.4699568 0.075693436 -0.8530862 -1.0694227
-0.5742786 0.04793256 0.022759255 -0.039121337 -0.040432196 -0.038507987 -0.008083351 0.038139466
0.008459706 0.021327268 -0.33123028 0.21672954 0.108608134 0.01275548 0.03619564 -0.006409634
-0.05334482 0.028988358 -0.0036636633 -0.14613707 -1.0638592 -0.11273094 0.066554815 -0.009517971
-0.0037826588 0.87702024 -1.2390214 -0.35226098 -0.23812826 -0.48111093 -0.12538588 0.0427129

fcs1.bias f4 [400]
00000000: 639c 7abe f360 963e b4ec 013f 0494 5d3e
00000010: 4feb 013f eaad e8be 27db 0b3f b7b0 a4bd
00000020: 7745 dd3e ac8f b33e d5b1 e83d bf6b b63e
00000030: 04c5 a63e b66f 5dbe 28e5 6fbe 6f48 9e3e
00000040: 2a8c 9dbe 90b6 a4bd 8031 09be c259 a3be
00000050: 38fa ffbe 70d1 00bf 8e48 dc3e 24d7 84be
00000060: c3e9 7f3e 8810 b9bd a00c 76be 5a62 a7be
00000070: d12d 02bf aaf3 f8be 6d35 dbbe 8a8d 0ebf
00000080: 3e6a eebe 156c 743e a55b c9be c967 8d3c
00000090: 793c 093f 4c9e e33d e5e7 c5be 19db 85be
000000a0: 74f0 d93e f292 98be 1c45 9e3e 5eb9 a5be
000000b0: 64eb 32bf 2eb5 d3be 955b 9e3d 4c68 8abf
000000c0: d199 82be 45ef 9dbe 0d23 913d bc24 62be
000000d0: 31cd e1be 6b74 a23e f6eb 6e3e f1c4 8abe
000000e0: d3ee b23e e27f dbbc a1dd 1d3f 8284 9c3e
000000f0: 8c60 e7be 3778 0dbf 24ae 9bbd 9d45 d3be
00000100: 8675 06bf 2d0e 6d3e a816 a0be 6c7b 1bbd
00000110: c639 f2be 0acb 29c0 0c03 d4be a446 0b3f
00000120: c439 0e3f c21e 37be eee8 48bf e242 0dbf
00000130: d398 a2be 2a2a 46be 7120 ca3e 7683 24be
00000140: f4ab 113d 3334 6f3e 7fc1 64be f11d 48bf
00000150: 4d18 8d3e a41b b4be 9026 353e 1416 f5be
00000160: 03cb 983e 19f8 fb3e 6d81 cabe 03df 313e
00000170: 8de1 39bf 3447 7fbe c967 a13e 4827 b6be
00000180: 9cda 8ebc aef7 a3be 56ad 713d cf11 c53e
00000190: 1e6b cbbe 32f5 dfbe e1eb 213f acbe b5be
000001a0: 8931 1abf 28ab d7be 6a47 7abe 64f4 f0be
000001b0: c73c f13e 2104 1bbf 8ca7 db3e 85bf a4be
000001c0: f6d0 01bf 2efa 87be 7aa2 833e 8f54 58bf
000001d0: 800c 083f 8b4e 6e3e 0b22 633e 463f d53e
000001e0: 3b2f 0ebf 2258 e23e 56a5 93be c9fe 143f
000001f0: ce3c d9be 8e40 04bf 9d7e 403e 580e 273e
00000200: f3ac 0dbf ff70 073f 0ea0 a4be 0ca2 753c
00000210: 4db0 993e f3c0 c43e 4096 d83e c13a cbbe
00000220: a083 d93e 344f fcbe b4f8 a93e 44e6 a63e
00000230: 0ba2 a33e e1d3 d4be 4611 30bf 4694 acbe
00000240: 09f8 063f 82e8 04bf 2be4 403f 3806 0dbf
00000250: 5d74 a8be fe17 49be 15f7 b43e df2e ecbe
00000260: 8704 8ebd f4aa 4bbe ba52 91be 4f7e cd3d
00000270: c56f a0bd 46c0 eabe 604a 85be cebf 2ebe
00000280: 0023 29be 80ae d43e 1011 97be 56f4 0a3f
00000290: b294 a83e 4435 2dbf adc3 343e 7258 13bf
000002a0: 0b53 503d eaa6 1cbd 319e 88be 85cf 913e
000002b0: c7e5 42be 44e8 8ebe 355c dabe 4cb6 5ebe
000002c0: 1827 60be a097 00bf 94e3 71be 66d6 bfbe
000002d0: 6be8 6c3e 88b3 eb3e e011 5b3e 7623 b0bb
000002e0: ce92 86be a498 a63e 65ba f53e abd1 04bf
000002f0: f285 e0be 7493 eabe a4f2 09bf b585 183f
00000300: daea df3e 5f85 e23e 2bf2 d43d c85d 0a3f
00000310: ea62 063f ad85 c0be 7842 adbe 66b3 e0be
00000320: ae49 f5be d653 a33e fb9b 0fbf b9ec b63e
00000330: 5fd6 5fbe ea73 a53d 87f6 80be 40eb adbe
00000340: c262 663e 44c9 71bd 9891 f6be 9218 063e
00000350: 4544 aebe cb34 073f 6a4d 203f 28ea 133e
00000360: ef94 8bbe 8f6a 423d e9e1 193f 8885 d0be
00000370: aa79 1fbe c82e 303e 7708 803e 0e07 3c3e
00000380: 73ca 0f3f 3b3e 63be 539c 863e 9e8d e03e
00000390: 103a 1ebe 0d37 6cbe 3258 173f 2694 babe
000003a0: 9cb1 9abe a7c3 cfbe f4d9 0abf 7454 a2bf
000003b0: 768d 0fbf c7f5 033f 65a0 1b3e 06ff 113e
000003c0: 6387 00bf 0ede c93e 0a83 a9be 894b aa3e
000003d0: fa38 15be 9d71 063f 953e 053f 46db 4ebe
000003e0: 3049 5c3e 7dd8 0d3f 8053 313e 56fe aa3e
000003f0: c384 043d e45b 013f 1bf1 eb3d 3983 c1be
-0.2447372 0.2937084 0.50751805 0.21638495 0.5074968 -0.45445186 0.54631275 -0.08041518
0.4321706 0.3507055 0.11362044 0.3562908 0.32572186 -0.21624646 -0.2342726 0.30914637
-0.30771 -0.080426335 -0.13397789 -0.31904417 -0.4999559 -0.50319576 0.43024105 -0.2594539
0.24991517 -0.09036356 -0.24028254 -0.32692224 -0.5085116 -0.486234 -0.42814198 -0.5568472
-0.4656543 0.23869355 -0.39327732 0.017261403 0.536079 0.11114177 -0.38653484 -0.2614372
0.42566264 -0.2979961 0.309121 -0.32367986 -0.6989043 -0.41349167 0.07732312 -1.0813079
-0.25507978 -0.3084661 0.070867635 -0.22084326 -0.4410186 0.31729445 0.233322 -0.2710338
0.34947833 -0.026794378 0.61666304 0.30569845 -0.45190847 -0.5526156 -0.07601574 -0.41264048
-0.52523077 0.23149939 -0.31267285 -0.0379595 -0.47309703 -2.6530175 -0.41408575 0.54404664
0.55556893 -0.17882827 -0.7848042 -0.5518018 -0.3175722 -0.19352022 0.39477876 -0.16065773
0.035564378 0.23359756 -0.22339438 -0.78170687 0.27557603 -0.35177338 0.17690492 -0.47868407
0.29842386 0.4921272 -0.3955187 0.17370228 -0.7260979 -0.24929506 0.31524494 -0.35576844
-0.017438225 -0.32024902 0.059003197 0.3849015 -0.3973016 -0.43741757 0.6325055 -0.35497034
-0.60231835 -0.4212277 -0.24441305 -0.47061455 0.47116682 -0.60553175 0.42901266 -0.32177368
-0.50709474 -0.2655806 0.25709897 -0.84504026 0.53144073 0.2327215 0.22180955 0.41649836
-0.5554082 0.44207865 -0.2883708 0.5820127 -0.42429203 -0.51661 0.18798299 0.16314065
-0.55342025 0.52906793 -0.32153362 0.014992248 0.3001732 0.3842846 0.42302132 -0.39693263
0.42483234 -0.49279177 0.33197558 0.32597554 0.31959566 -0.415679 -0.6877636 -0.33706874
0.5272222 -0.5191728 0.75348157 -0.55087614 -0.32901278 -0.19638059 0.3534476 -0.4612951
-0.06934457 -0.19889432 -0.28383428 0.10033857 -0.07833818 -0.45849818 -0.26033306 -0.17065355
-0.16517258 0.41539383 -0.29505205 0.5427908 0.32925946 -0.676594 0.1765277 -0.5755683
0.050860446 -0.03824512 -0.2668319 0.28478637 -0.19032966 -0.2791158 -0.42648473 -0.21749228
-0.21889913 -0.5023136 -0.2362197 -0.3746826 0.23135535 0.4603541 0.21393538 -0.005375321
-0.26283878 0.3253833 0.4799377 -0.5188243 -0.43852192 -0.45815623 -0.53885865 0.5957902
0.43733865 0.4424238 0.103977524 0.5404935 0.5249468 -0.37601987 -0.33839774 -0.4388687
-0.47907776 0.318999 -0.5609738 0.3572748 -0.2185912 0.080787495 -0.25188085 -0.33968544
0.2249861 -0.059029832 -0.48157954 0.1309531 -0.3403646 0.5281493 0.62618124 0.14444792
-0.27262065 0.047464903 0.60110337 -0.40726876 -0.15573755 0.17205346 0.25006458 0.18362066
0.5616829 -0.22191708 0.2629114 0.43858045 -0.15451837 -0.23067875 0.5911895 -0.36441153
-0.3021363 -0.40578958 -0.5423882 -1.2682023 -0.5607523 0.515469 0.15197904 0.1425744
-0.50206584 0.39427227 -0.33107787 0.33260754 -0.14572516 0.5251711 0.5204862 -0.20200834
0.21512294 0.5540846 0.17317009 0.33397168 0.032353174 0.5053084 0.115205966 -0.37795427

fc2.weight f4 [300, 401]
00000000: 13c0 093f 513f bb3c 8148 a6be a2ae 313e
00000010: 2d03 d53d 201f 6b3c 52af 64bd ea32 993b
00000020: e8e2 753c 772e a53d b90c 01be 3676 7e3d
00000030: 589f 923e 54c2 0cbc 9be9 123f dba8 1f3d
00000040: 28e5 dd3c 0039 0cbd 4211 043e 44ac 3cbd
00000050: 79f4 e3bc ac4a 043d 5e57 1c3d afab 5dbd
00000060: 58f1 573e a398 893e 6ba8 e4be c701 ef3c
00000070: bc4e a43c b643 243d 416a 1dbd 30c2 79bd
00000080: d0d2 6a3d 9cbc 3bbd 6859 543c 5553 fd3e
00000090: fb5d e93d ec99 893c a9fc 413c 25e7 7d3e
000000a0: 8b3d ca3d 00cc da39 1405 233c 2431 38be
000000b0: d7e7 68be 284a 0e3c 44c3 bebd 2430 d03d
000000c0: 2f86 5d3f b587 fa3d 1779 67bd 9c01 61bd
000000d0: a068 c5bb 1a7c 2dba 895e 55be 0084 8d3d
000000e0: da64 94bd e376 cdbe c84e d9bd b71e 5ebc
000000f0: 183f 2a3d 4140 6cbd df72 d7be e0f5 92bb
00000100: d01a 3bbb 872d ac3d 33c5 803d 7d93 bebe
00000110: 561f 65bd 3e22 8640 92d7 473d e55b c73b
00000120: 905f 333d c1f0 c23d f8bc 73be 10c9 0dbb
00000130: 8021 b9bc 5cff 423d 56f3 9c3c 1063 7cbb
00000140: 05d8 bebd 8ba6 763e af36 7a3d 5a0d 0b40
00000150: 4097 263e 0065 d03c 2d78 93bd 8d44 0fbd
00000160: 52c6 b4bd 7816 a4bd 8a7d 133d 6031 8fbd
00000170: 8a1b c1bc eab9 6fbe c2a0 12bd 80b8 f13b
00000180: c1cf e6be 5f38 47ba 6e8e a8be 0bf6 7cbe
00000190: d0d0 9d3b ae2f 143f d322 a33d 0cb7 c73c
000001a0: 6281 893f 9ea4 213f 3aa9 8e3e c8a4 3cbc
000001b0: c4fe 423e 9429 de3e d0a1 d13d 064a 103d
000001c0: f2de d6bc 70a2 3e3d d3e3 193c 974e 31bf
000001d0: 2fa4 83bd 7819 9a3c 91af e03d b2e2 183e
000001e0: d0c1 563d 4d21 843e 52f5 1d3d 0507 873e
000001f0: 0aed 53bd 9814 3a3d 1210 263d 4cda 00be
00000200: d0e0 083d ca58 7b3d 310b 5cbe f69c 92bd
00000210: 654b 3d3e 847d b7bd 4cf0 8c3e 53a6 883d
00000220: 50fd 043e 12c1 11bd c4f7 1abe 9e6b 90bd
00000230: f181 d33b 8fcb 923e 5b8d 43be 7995 1b3e
00000240: dc4a a53d 3820 a13c 3922 babe 829c 093d
00000250: ce89 393d 04a7 0abd 56a5 14bd 28aa 1b3d
00000260: 4211 53be f7bb 40bd 1c8b 0f3d f3cf dd3d
00000270: 411c a93a 7aba 5cbd fc02 f93c 78f4 003d
00000280: 5c18 e83b 8127 51bd b5c8 043e 05a5 383e
00000290: c887 283d ce65 8a3d c680 3ebe 3afa d2be
000002a0: cfb0 de3d 46d7 a53d 2022 33bd 9ec2 66bc
000002b0: 18f8 9a3b a655 5d3f 3686 573d 805c 413b
000002c0: dd06 ae3e a29c 1e3d 68be 25bd bcbe debc
000002d0: 0e36 2abd 5af9 e63d ad89 2e3e 0fea 243d
000002e0: 7431 42bd 6c87 81bc b9dd 0ebf 160d 2c3d
000002f0: 38d4 393c ecee 1e3d 3a0f 8dbe 724a ae3d
00000300: d835 263a feb7 f7bc d3c2 6abd dac3 833e
00000310: b97d 9c3d 3e97 a8bc 5648 4a3e d8b4 69bd
00000320: 30d1 613d 0b4e 023e 6412 1dbd ea74 4fbd
00000330: 7099 3cbe 5c3f ffbc b1a9 973e 0881 ea3c
00000340: 613c d43c ed41 05bd d65a 433d f2ee bbbe
00000350: e5cd 57bd 488e 9abd 9b22 773e 6e86 65bd
00000360: 4f61 4abc f56c f3bc 327d 27bc 1013 863e
00000370: f2b4 9ebc a196 083e 8bfc 04be e6a2 03bd
00000380: 7a64 b93e c118 00be f112 ed3d 0397 51bd
00000390: bfeb eb3e 2cbb b4bb 45d8 66bc 4976 45bd
000003a0: 83f3 f4bc 90ca cd3c a006 b6bb b805 5740
000003b0: 002a 79bc c09b 933c 360a b3bc cf60 fdbd
000003c0: c23f 0abd b083 723e 4ea7 553e 0bbb e2bd
000003d0: 146e fa3c 548a 87b9 e9b1 9c3d f761 733d
000003e0: 0de1 08bb 6873 733e 4eab 93bd d49a 0dbe
000003f0: b9c5 2dbe 9b9d ecbc 1740 8c3c fe41 423d
0.53808707 0.02285734 -0.3247719 0.17351773 0.10400996 0.0143506825 -0.05583126 0.004675259
0.015007712 0.08065503 -0.1260251 0.062124453 0.28637195 -0.008591253 0.57387704 0.038979392
0.02708681 -0.034234047 0.12897208 -0.046062723 -0.027826535 0.032297775 0.038169257 -0.05411881
0.21088159 0.26874265 -0.44659743 0.029175652 0.020057075 0.040103637 -0.03843141 -0.060976207
0.057329953 -0.04583417 0.012960769 0.4947764 0.113948785 0.016797028 0.011840024 0.24795206
0.0987502 0.00041732192 0.009949941 -0.17987496 -0.2274469 0.008684672 -0.09314588 0.10165432
0.8653287 0.12232915 -0.056511965 -0.054933175 -0.006024435 -0.0006617919 -0.20836844 0.069099426
-0.072457984 -0.40129766 -0.106107295 -0.013557128 0.041564077 -0.057678465 -0.42079827 -0.004484877
-0.0028549917 0.08407121 0.06287613 -0.372219 -0.055938087 4.19168 0.04878957 0.0060839527
0.043792307 0.095185764 -0.23802555 -0.0021634735 -0.022598982 0.04760681 0.019159 -0.0038511194
-0.09318546 0.24086969 0.061087307 2.17269 0.16268635 0.025438786 -0.07200656 -0.034977484
-0.08826889 -0.08012098 0.036008395 -0.069918394 -0.023572702 -0.23410764 -0.03579784 0.0073767304
-0.4508038 -0.00075996475 -0.32921165 -0.24703233 0.004816152 0.57885253 0.079656266 0.024379276
1.074261 0.6314181 0.27863485 -0.011513896 0.19042498 0.43391097 0.102359414 0.035226844
-0.026229355 0.04654163 0.009392696 -0.69260544 -0.064278 0.018810973 0.10970987 0.14930227
0.052430928 0.25806656 0.038564034 0.26372543 -0.05173973 0.045429796 0.04054267 -0.12583274
0.033417523 0.061363973 -0.21488644 -0.07158844 0.18485792 -0.08959487 0.27527082 0.06672349
0.12987256 -0.035584517 -0.15133578 -0.07051776 0.006454699 0.28670928 -0.19096892 0.15193738
0.08070919 0.019668683 -0.36354235 0.033596523 0.045297436 -0.033850685 -0.03629049 0.03800407
-0.20612052 -0.047054257 0.035044774 0.10830679 0.0012902097 -0.053888775 0.03039693 0.031483144
0.007082982 -0.051063064 0.12967189 0.180317 0.041145116 0.06757699 -0.1860381 -0.41206533
0.10873567 0.08097701 -0.043733716 -0.014084486 0.004729282 0.86458814 0.052618228 0.0029504597
0.3398961 0.038723595 -0.04046479 -0.027190559 -0.041555457 0.11278029 0.17044707 0.04026228
-0.047410443 -0.015811644 -0.5580707 0.042004667 0.011342101 0.038802072 -0.2755068 0.08510293
0.0006340421 -0.030239101 -0.057314705 0.2573536 0.07641167 -0.02057993 0.19754156 -0.05705723
0.055131137 0.12725084 -0.038347617 -0.050648607 -0.18417907 -0.031158142 0.29621652 0.02862598
0.025907697 -0.032533575 0.04769405 -0.36705738 -0.05268659 -0.07546669 0.24134295 -0.056036405
-0.012352302 -0.02971504 -0.01022272 0.2618642 -0.01937339 0.1333871 -0.12986962 -0.032137774
0.3620947 -0.12509443 0.115758784 -0.051169407 0.46078297 -0.0055154767 -0.014089649 -0.04820851
-0.029901272 0.025121003 -0.005554989 3.359724 -0.0152077675 0.018018603 -0.021855455 -0.123719804
-0.03375221 0.23683047 0.20864603 -0.11070832 0.030570067 -0.0002585227 0.07651121 0.0594196
-0.0020886094 0.23774493 -0.07210408 -0.13828593 -0.16969956 -0.028883746 0.017120404 0.047426216

fc2.bias f4 [300]
00000000: 2c2f 573e 4f46 59bd 7f8b 943e 3542 16bd
00000010: b137 57bd a933 8c3e 92ca dd3e b0bc e43d
00000020: b00b 5dba 24f6 743e fdd5 95bd d362 b63e
00000030: 130a 803e 70ae 85bc 8108 59bc f4ed 8dbd
00000040: 2cf5 7c3e 50b3 9bbd 7ba0 b93e 9ebc 893c
00000050: a4c0 823e 258d cd3e 3c15 bcbd 7e66 963e
00000060: dce7 803e fca9 a73e c24c 69bd 74cc 08bd
00000070: b523 9a3e fd2c 7f3e fff4 ad3e 16b8 bf3e
00000080: 21ea eebc 1345 8dbd 4d81 913e a03e ad3e
00000090: 836c 1abd ffad 51bd 0779 09bd 1136 bb3e
000000a0: 9fae 373e 189a 993e a608 b83c dc18 8b3e
000000b0: f1d9 b73b 7e18 3abd a480 32bd ce2b 2c3b
000000c0: 6fce 35bd 3c28 c53d d7e6 803e 9f18 aa3e
000000d0: 2249 5e3e 1267 e5ba ce5d 60bd 9935 9fbd
000000e0: bba4 88bd 84d7 5ebd de68 f2ba 14d6 13bd
000000f0: 0943 983e ed09 173c 92de c83e 811f 6b3e
00000100: 15d3 943e 703d d7bc a31e 82bd 21e4 2a3d
00000110: a30a af3e 7781 c13e 44ff 893c 3821 3cbd
00000120: 5830 28bd dcf8 313e 01bf 103c ca8c 37bd
00000130: 5df8 7dbd 9639 763e f5b2 53bd 3de0 b73e
00000140: 0bec ffbc a3bc f6bb 8be6 9dbd a969 56bd
00000150: 20b1 723e ec93 873e 42a1 7c3e 8de4 783e
00000160: 0814 5fbc 3581 ed3b 21fc 93bc bb96 3e3c
00000170: 9559 993e 9c66 64bd 7e93 8b3e 8283 9e3e
00000180: 1f27 a03e 3173 093e 1869 973e 880d 273e
00000190: 17ba a23e d257 733e 1e62 c43c 71d2 5dbd
000001a0: a8f1 ec3e 424e 87bd 6cfc 893e bf49 763e
000001b0: 10f1 5a3c f1c7 a63e d1e6 aa3e e5c9 7d3e
000001c0: ff60 9e3e 8d7d 21bd a4d8 1bbd d6c1 603e
000001d0: 6be4 213e 7c5c 453e f2ee 773e 4f16 923e
000001e0: 20c9 ae3e a2c8 30bd ad4d b43c b1ac c73c
000001f0: 6075 dabc ee03 af3e 91aa 383e 08a5 a7bd
00000200: 408d ba3e adab d7bc 4b8d 2b3c 9ed2 1e3e
00000210: 6c03 80bd 2a9f 9cbc e50b e0bc e34f 5b3e
00000220: 02d9 613e 63ff 283c 4668 dd3a 86a4 d5bc
00000230: bd98 4dbd a53c 263e f179 cebc 8868 883e
00000240: 3ac8 2ebc 6cd7 66bd 9fc4 54bd 768f 1f3f
00000250: 8529 743e faaa 933e f085 f13d 3ccb 803e
00000260: 0e1e 5dbc 90e9 8fbd 0bad b5bc 8e2c 07bd
00000270: 7160 923e c600 973e 77f1 d03e 9c3f 32bc
00000280: 4521 f8bc 66c4 20bd 7534 06bc 4fb5 75bc
00000290: 2857 c9bc 6262 573e 2696 233e 997c 8fbb
000002a0: 7fba 6a3e b112 5d3e 1f83 d5bc 8867 02bd
000002b0: 5681 383c ec2b 7b3e 3e16 69bd a50e 663e
000002c0: 70ac c23e ae57 8ebb 72d8 3a3e ee19 dcbc
000002d0: 41a9 473e 39c9 a73e bff4 c73e 74b1 243e
000002e0: 2fdf c63e 8fab a13e 09e2 89bd 60a1 f43e
000002f0: 6310 5d3e 559b 62bc 80c4 963e ac41 3dbd
00000300: aa88 e5bc ec76 8e3e 5afa 83bc a933 103e
00000310: 2e05 963e 0426 27bd f766 33bf da9a 8b3c
00000320: 7bed 2b3e fc8c d43c 0dce 5f3e 154d 123f
00000330: d689 823e 24ae a2bd 5642 71bd 9d12 27bc
00000340: 6f91 d53e af77 ecbd 4bf0 72bc f401 09bd
00000350: 328d 32be 95c4 2d3e e390 ddbc 2659 563e
00000360: 5224 283e 5293 e1bc 5a38 933e d7e3 273d
00000370: 11c3 29bd 7b7f 81bb 9c3b 48bd ef3a 873e
00000380: cf0c 003e 5b95 af3e 8fba 893e cf8e f33d
00000390: 0e1b 983e ceda 0abd 6414 6f3e e0d0 5a3e
000003a0: 46a0 223e 3ccf 753e 00e7 563e 41da 853e
000003b0: 041f a83e 1a9e af3e 749d c1bc 5677 41bd
000003c0: 00a2 bb3c d51f 3b3e 9b3b c03e ce9e 00bd
000003d0: 5586 873e bb59 c8bd ffdd 8b3e 4ca9 b73e
000003e0: bf57 cb3e 1dea 0bbd 934a bc3e d126 753e
000003f0: 2c74 c93e 86b6 9b3c 6034 6a3e 4016 03bd
0.21014088 -0.053045567 0.29012677 -0.036684234 -0.052543346 0.27383164 0.4331861 0.11168802
-0.00084322225 0.2392202 -0.07316206 0.35622272 0.25007686 -0.01631853 -0.013246656 -0.069301516
0.247029 -0.076025605 0.3625525 0.016813572 0.25537598 0.40146747 -0.09183738 0.2937507
0.25176895 0.32746875 -0.056957968 -0.033398107 0.30105367 0.24919505 0.3397598 0.37445134
-0.029164376 -0.068979405 0.2841896 0.33836842 -0.03770114 -0.051191326 -0.033562686 0.36564687
0.17937706 0.30000377 0.022465061 0.27167404 0.0056106974 -0.045433514 -0.043579713 0.0026271227
-0.044386324 0.09626815 0.25176117 0.3322191 0.21707585 -0.0017502031 -0.05477696 -0.07773895
-0.06672045 -0.05440475 -0.0018494388 -0.036092833 0.29738644 0.009218675 0.39232308 0.22961237
0.29067293 -0.026274413 -0.063535 0.041721467 0.34187803 0.37794086 0.016845353 -0.045930117
-0.04106173 0.17380089 0.008834601 -0.044812 -0.062004436 0.24045405 -0.05168434 0.35913268
-0.031240484 -0.0075298115 -0.07709988 -0.05234686 0.2370038 0.26480043 0.2467089 0.24305935
-0.013615616 0.0072480687 -0.01806456 0.011632617 0.29951158 -0.05576192 0.27260965 0.30959707
0.31279847 0.13422848 0.29572368 0.16313756 0.317826 0.2376397 0.023972567 -0.05415577
0.4627812 -0.06606723 0.26950395 0.2405157 0.013363138 0.32574418 0.33379224 0.24784048
0.30933377 -0.039426375 -0.0380484 0.21948943 0.15809791 0.19273561 0.24212244 0.28532645
0.3413782 -0.04316009 0.022009695 0.024374338 -0.026667297 0.34182686 0.18033816 -0.08185774
0.3643589 -0.026326979 0.010470699 0.15510032 -0.06250653 -0.019118864 -0.027349422 0.21417193
0.22055438 0.010314795 0.0016892038 -0.026079427 -0.05019449 0.16234072 -0.02520463 0.2664225
-0.010667855 -0.056357786 -0.051945325 0.6232828 0.23843963 0.28841382 0.11793125 0.25155056
-0.013495935 -0.070269704 -0.02217724 -0.033001475 0.28589204 0.29492778 0.40809223 -0.0108794235
-0.030289302 -0.0392498 -0.008191218 -0.014996841 -0.024577692 0.21033624 0.15975246 -0.004378867
0.22922705 0.21589161 -0.0260635 -0.031837016 0.011261305 0.24528474 -0.056905977 0.22466524
0.38022184 -0.0043439483 0.1824663 -0.026867833 0.19498159 0.32770708 0.39053914 0.16083318
0.3884215 0.315762 -0.06732566 0.4777937 0.21588282 -0.013830979 0.29446793 -0.046205208
-0.028019268 0.27825105 -0.016110588 0.14082207 0.29300827 -0.04080774 -0.70078987 0.017041612
0.1678981 0.025946133 0.21855946 0.5714887 0.25495785 -0.07943371 -0.058901154 -0.010197309
0.4171252 -0.11546265 -0.014827798 -0.03344913 -0.17436674 0.16969521 -0.027046626 0.20932445
0.16420105 -0.027536068 0.2875393 0.04098877 -0.041445795 -0.0039519644 -0.048884973 0.2641215
0.12504886 0.34293637 0.26900145 0.11892473 0.2970814 -0.033900075 0.23347622 0.21368742
0.15881452 0.24004835 0.20986557 0.26143077 0.32836163 0.3430031 -0.02363465 -0.04723295
0.022904396 0.18273862 0.37545475 -0.031401448 0.26469675 -0.0978274 0.27317807 0.3587135
0.39715382 -0.034158815 0.36775646 0.23940589 0.39346445 0.019007932 0.22871542 -0.03200364

fc3.weight f4 [1, 300]
00000000: 230f 8ebd 517b 923c 11e3 12be 1dfc ec3c
00000010: 08b4 2e3b 2576 86bc 1cec 82bf 5e74 79c0
00000020: 1b6a adbb f10d c7bd 01eb be3c 726f c3bd
00000030: ca8e 56be 6c7c d9bb 7a94 4ebc bdc7 9b3c
00000040: 83f0 9bbe f971 c2bc 305e 72bd 68c8 edbc
00000050: f945 1cbe 623a 15be 34ef 033d b0f1 aabd
00000060: 4575 ff3f c1ad 20be bc82 ebbb fae0 33bb
00000070: 3915 223a c7d6 95bc 3de8 11be 967f 23be
00000080: 8c0f ddbb 5ca1 d93c e038 bebc db46 ddbe
00000090: bc1b b7bb 0f63 963c f403 4fbc da4e 3dbe
000000a0: 6e36 233b 8d47 98be 290c b2bb b120 b6bd
000000b0: 8f80 e63c 2780 f83c 93b7 11bc 257a cb3c
000000c0: b7ef 433c 9204 0ebc 9606 c3bd 81fa febd
000000d0: 59b5 5dbd 82a0 ee3c adde 0bbc 831a f03c
000000e0: f71d e23c 18df 3c3c 6d97 973c f63d 4bbc
000000f0: f4e1 18bd 6ac6 c9bc c5e9 9bbd 38ff b0bd
00000100: 90e9 29bd b641 88bc 8bf7 0640 4ee4 adbb
00000110: e0c5 e0bd 808b 2cbe 3b10 8cbb e79b 073c
00000120: be43 d4bc 9cb0 25bf e244 01bc 77ff 9ebb
00000130: c4f4 cc3c 9bbc ebbd 481a 153b eaf7 c1bd
00000140: cf0d 9b3c 3e1f 1dbc 49d6 b63c b77f f63b
00000150: cf4a a7bc ef19 40bc 26cb 1cbd 9f67 d8bd
00000160: cbfd 98bc 9916 b63c e355 f240 e836 afbb
00000170: 9bcb d5bc a9a6 c238 c157 a7bd fd79 58bd
00000180: 9475 8fbc 30c0 de3b fe26 e5bd 61c7 eabb
00000190: 5a2c 48bd 9541 debc 04fb 7abb 535a 93bb
000001a0: ea02 84be 6512 b63c c2ce 64bd 1603 4740
000001b0: 016e f43c e4fc aabc 7765 99bc 5e5c 3e40
000001c0: 17da a33f 5484 f3bb 674f 0e3b 3e43 86bd
000001d0: 2ebb 14ba a943 2ebd 85e9 a7be dca5 32be
000001e0: 5e9b 20be 9305 173c dbc9 c83b 5d11 81bb
000001f0: f68d 03bb 56f3 b5bc 1a4d 9e3d 5cc1 e43c
00000200: 1f7a 2abe 6ccf 0d3d 21e8 bd3c 7099 0440
00000210: a3bb dfbb 38f6 e03c 13ca 21bc d127 26ba
00000220: aacd 1a40 8e6f e93c 8123 2d3d 3104 88bb
00000230: e19c 5b3c bdc6 d840 a940 8dbb 5f3b 2bbe
00000240: 6f11 bcbb cdce 05bc 04c6 913c ae87 d2bf
00000250: e4f1 8fbe a056 02be 0553 d740 06ae 79bc
00000260: a126 e6bc d19a 123d f011 f2bc 3a6d e9bc
00000270: 83b4 a5be 0398 55bd 9281 48bf 48eb 0bbc
00000280: 66c1 e6bc 5fcc 82bb f001 ea3c 9d44 90bc
00000290: 2a0d b1bb 4bb6 abbe 4ea3 063c 8136 bd3b
000002a0: e020 2e3c a6be a9ba a2c2 803c 70f0 1b3c
000002b0: d788 c2bb 3bfc 9cbd a937 0ebc c295 07be
000002c0: ae7e bbbd 6fc7 28bc bd95 d9bb 6039 edbc
000002d0: 6f78 f6bf aa39 7ebd 0fd6 a8bd a567 40c0
000002e0: 5186 08c0 c85e b8bd 0b23 0cbc 00ec 82bf
000002f0: f9e2 38bc d84a d13c faaa a8bd 0496 ccbb
00000300: f170 ea3c aaa9 cdbd 31e0 aebc 60ef 14be
00000310: e791 0dbe 1384 f2bc bb10 c33f 924d d2ba
00000320: ba66 47ba 1721 773c f13b 0f40 4619 9bbf
00000330: e438 3a40 be60 e9bc 9b9b d6bc 95f7 8dbc
00000340: 598f b0bd 5c6f b43c 3f6a e83c ebf4 23bc
00000350: a85c 61c0 24e3 e0bb 06f5 b7bc ce18 26be
00000360: 582c a7bc a5bd 2d3c 2cfe 6ebc ec44 8ebb
00000370: a845 e8bb 58a7 0cbc 0f03 c2bb 673d 72bc
00000380: 233c b23c 853f 62bd cccb 9cbe 5ba2 d8ba
00000390: e483 54bd d93b 8cbb 0d2d 9cbe db9d 05bd
000003a0: 80fc b63c b03d 21bc b24e 8840 76bb 96be
000003b0: 4147 9cbe dd17 17bd d36b ecbb 6415 d03c
000003c0: 006b acbb 0894 99bb 9134 37be 7cff e33c
000003d0: bb40 9abe ee9c 963c 04ff 4dbd f95b 23bd
000003e0: 8e92 69bd f4f0 fdbc b482 79bd 3bde 10bd
000003f0: eb50 4abd a886 adbb b129 e2b9 554c 16bd
-0.06936481 0.017881067 -0.14344431 0.02892881 0.00266576 -0.016413758 -1.0228305 -3.8977275
-0.00529219 -0.09719456 0.023305418 -0.09542741 -0.20952907 -0.0066371467 -0.012608642 0.019016141
-0.30456933 -0.023735987 -0.059171855 -0.029026225 -0.15261067 -0.14573053 0.032210544 -0.083468795
1.9957663 -0.15691282 -0.0071872156 -0.002744733 0.0006182972 -0.01829089 -0.14248748 -0.15966639
-0.006746238 0.0265662 -0.02322048 -0.4321812 -0.005588023 0.018357782 -0.01263522 -0.1848711
0.0024904269 -0.2974209 -0.0054335785 -0.08892954 0.028137473 0.030334545 -0.008893865 0.024838516
0.011959008 -0.008668082 -0.095227405 -0.124501236 -0.054128025 0.02912927 -0.008536977 0.029309517
0.027602179 0.011527799 0.018504823 -0.012404909 -0.03732486 -0.024630744 -0.076129474 -0.08642429
-0.04148251 -0.016632896 2.1088588 -0.005306757 -0.10975242 -0.1685009 -0.0042743958 0.008276916
-0.025911208 -0.6472261 -0.007889958 -0.004852231 0.025019057 -0.11510583 0.002275126 -0.09471114
0.018927483 -0.009589968 0.022318976 0.007522549 -0.020421414 -0.011724933 -0.038279675 -0.10566639
-0.018675705 0.022227572 7.572984 -0.0053471215 -0.026098063 9.281684e-05 -0.081710346 -0.052850712
-0.01751212 0.006797813 -0.11189078 -0.007164881 -0.048870422 -0.027130881 -0.003829659 -0.0044968515
-0.25783473 0.022225568 -0.055861242 3.1095634 0.02983761 -0.02087254 -0.01872514 2.9743876
1.2800931 -0.007431546 0.0021714808 -0.06555794 -0.0005673644 -0.042544995 -0.3279535 -0.17446083
-0.15684268 0.009217638 0.0061275787 -0.0039388374 -0.002007363 -0.022210758 0.0772955 0.027924232
-0.16648148 0.03462164 0.023181977 2.071865 -0.006827788 0.027461156 -0.009874838 -0.00063383306
2.4188027 0.028495576 0.042270187 -0.0041508903 0.013404102 6.77426 -0.0043106866 -0.16721867
-0.005739383 -0.008166981 0.017794617 -1.6447656 -0.28114235 -0.12728357 6.728884 -0.015239244
-0.028094592 0.035792176 -0.029549569 -0.028494466 -0.32364282 -0.052146923 -0.7832271 -0.008539982
-0.028168391 -0.003991648 0.028565377 -0.017610842 -0.0054031806 -0.33537516 0.008217646 0.0057743196
0.010627955 -0.0012950494 0.015717808 0.009517774 -0.0059367227 -0.07665297 -0.008680263 -0.13240722
-0.091550216 -0.010301455 -0.0066401646 -0.028958023 -1.9255503 -0.06206671 -0.082439534 -3.006326
-2.133198 -0.09002453 -0.008553277 -1.0228271 -0.011284583 0.025548384 -0.08235736 -0.006243469
0.028618308 -0.100421265 -0.021347137 -0.1454444 -0.13825189 -0.029603994 1.5239481 -0.0016044846
-0.0007606555 0.015083573 2.2380335 -1.2117088 2.9097223 -0.028488513 -0.026197245 -0.01732997
-0.086210914 0.022025757 0.028370975 -0.010007123 -3.5212803 -0.006863015 -0.022455703 -0.162204
-0.020406887 0.010604297 -0.0145869665 -0.004341712 -0.007088382 -0.00858482 -0.005920775 -0.014785147
0.021757191 -0.05523636 -0.30624235 -0.0016527878 -0.051883593 -0.0042795953 -0.3050312 -0.032621246
0.022337198 -0.009841368 4.2596064 -0.29439896 -0.30523112 -0.036887992 -0.007215002 0.025400825
-0.005261779 -0.004686836 -0.17891146 0.027831785 -0.3012751 0.018385377 -0.05029203 -0.039882634
-0.05702453 -0.030998684 -0.060915664 -0.035368185 -0.049393576 -0.0052955933 -0.00043137142 -0.03669389
