ddpg-pendulum/checkpoint_actor.pth (torch_old, 489825 bytes, 5 tensors)

fc1.weight f4 [400, 3]
0.20026982 -0.30877393 -0.046289973 -0.31913427 -0.3058206 -0.10269142 -0.15618722 0.2759038
-0.043387834 -0.121937305 -0.10222619 -0.05409676 0.25172615 -0.05216572 -0.1191504 0.0216269
-0.042769413 -0.00012123585 0.22036935 -0.002868831 -0.18769225 -0.1791514 -0.25391793 -0.06494465
-0.28677723 -0.12296533 0.0032555512 -0.23332347 -0.07183258 -0.060627155 -0.04072042 0.0016602799
0.0005077198 -0.028537914 0.217354 0.046303894 -0.057220895 0.29687572 -0.0067908224 -0.008847166
0.023326907 -0.0065227374 -0.25344846 -0.015866483 0.19751702 -0.15372114 -0.18133034 -0.056893557
-0.4216967 -0.35181275 -0.09647153 -0.006706316 0.0136680715 0.0017826483 -0.26498064 0.056108885
0.010478769 -0.10798778 -0.29474148 -0.010821389 -0.0050741807 0.032885876 0.04791506 -0.041334726
0.020467106 0.015500363 -0.23301321 -0.18062776 -0.07345389 0.0024740398 0.02533121 -0.010311179
-0.12774043 -0.14788432 -0.06663838 -0.18925469 -0.22587132 0.05418059 -0.0932953 0.31500143
0.03321861 -0.002597671 -0.003707409 -0.002865702 0.026745234 -0.024214882 0.04393435 0.026897851
0.034730706 -0.04139321 0.006111514 0.03656326 0.009795338 -0.09524653 -0.38012373 -0.09461774
0.04281654 -0.002116371 -0.017223157 0.21027337 -0.23711076 0.032123335 -0.025107862 -0.022303421
0.04461048 -0.013021274 0.34388596 0.043832295 0.19039232 -0.08165818 -0.18733439 -0.23118187
-0.2173148 -0.07485874 -0.016176216 -0.020508831 -0.01582573 -0.15547678 -0.08855958 -0.05579504
-0.0042899176 0.2249939 -0.06246226 -0.047045793 0.04820553 0.0062896386 -0.028966669 0.10098445
-0.09764496 0.15532996 0.0899816 0.066862695 -0.043564133 0.31327415 0.022074081 0.025978517
0.038606096 -0.02169457 -0.20941928 -0.08955295 -0.07582947 -0.08373346 0.2804341 0.03023067
0.0070905024 0.7909817 0.1822824 -0.12309879 -0.28696132 -0.08630213 -0.0062468485 0.23809515
-0.088828266 0.18503204 -0.044505198 -0.08691986 -0.034439076 -0.03399934 -0.03088873 -0.19360349
-0.23652002 -0.08909332 -0.04838552 0.29658422 -0.09481492 0.020348754 0.008426357 -0.01426781
-0.0269669 0.3623726 0.03280102 0.10384276 -0.19834884 0.024477094 -0.04282293 -0.055185605
-0.0469337 -0.02590324 0.2749042 0.034069646 -0.036599018 -0.0052224174 0.032829437 0.04692257
-0.03388556 0.046090607 -0.057345934 0.32962415 0.013486741 -0.046556752 -0.04504026 0.009658836
0.035360176 0.043541465 0.012845967 -0.13710615 0.31649157 0.05118945 0.047458496 0.02529252
-0.005345635 -0.2767232 -0.27077013 -0.038706753 0.039893623 -0.015788503 -0.013104968 0.03539503
-0.010109372 0.017269824 0.024060313 -0.028099073 0.008834489 0.06612688 -0.11113176 -0.21829343
-0.1256553 -0.11756056 -0.045722265 -0.18743938 -0.27326402 -0.068708904 -0.19184902 0.21147974
0.04208594 0.013637457 -0.024840666 -0.013430454 0.022428174 0.048059914 0.02893236 -0.0033231564
0.004577093 -0.013995934 -0.056563098 -0.53051776 0.06597866 0.26269886 -0.2605709 0.08051699
-0.17961961 -0.18402115 -0.07661851 0.03329941 -0.31958553 0.013276193 -0.03763875 0.79511434
0.18635532 0.10175973 -0.4588528 -0.085447736 0.09747972 -0.29442486 0.013498272 0.016566169
00000000: 8813 4d3e 9e17 9ebe 8e9a 3dbd 9165 a3be
00000010: 8594 9cbe e14f d2bd 8bef 1fbe 4343 8d3e
00000020: 71b7 31bd 44ba f9bd f75b d1bd 9094 5dbd
00000030: 40e2 803e b9ab 55bd 2005 f4bd e62a b13c
00000040: fb2e 2fbd 0040 feb8 81a8 613e ff02 3cbb
00000050: 6632 40be 7773 37be 8801 82be b301 85bd
00000060: 77d4 92be 3fd5 fbbd 165b 553b 59ec 6ebe
00000070: f61c 93bd 2e54 78bd 75ca 26bd c09d d93a
00000080: 8018 053a 58c8 e9bc 0c92 5e3e 27a9 3d3d
00000090: 7560 6abd 1800 983e 8c85 debb b4f3 10bc
000000a0: 1218 bf3c b0bc d5bb ffc3 81be 6dfa 81bc
000000b0: e741 4a3e 1369 1dbe a9ae 39be 3809 69bd
000000c0: a1e8 d7be cd20 b4be de92 c5bd a8c0 dbbb
000000d0: 0cf0 5f3c c0a7 e93a 8bab 87be 6ed2 653d
000000e0: 25af 2b3c b228 ddbd 5be8 96be 324c 31bc
000000f0: 5045 a6bb 57b3 063d 9542 443d 9a4e 29bd
00000100: a2aa a73c 3cf5 7d3c 049b 6ebe 7cf6 38be
00000110: fe6e 96bd 8023 223b 6683 cf3c 38f0 28bc
00000120: 63ce 02be fd6e 17be b479 88bd fbcb 41be
00000130: d04a 67be 77ec 5d3d 9b11 bfbd de47 a13e
00000140: 3d10 083d b03d 2abb 00f8 72bb 80ce 3bbb
00000150: d218 db3c 4a5e c6bc 81f4 333d e258 dc3c
00000160: c941 0e3d ed8b 29bd 1843 c83b 5bc3 153d
00000170: a07c 203c 9d10 c3bd 949f c2be f2c6 c1bd
00000180: 6560 2f3d d0b2 0abb 9417 8dbc e751 573e
00000190: 2acd 72be c293 033d 01af cdbc aab5 b6bc
000001a0: 7bb9 363d 2e57 55bc d211 b03e 7e89 333d
000001b0: 34f6 423e 673c a7bd 96d4 3fbe f1ba 6cbe
000001c0: c587 5ebe 8a4f 99bd fc83 84bc 2302 a8bc
000001d0: f6a4 81bc 4e35 1fbe ba5e b5bd 5789 64bd
000001e0: 7092 8cbb cd64 663e 6dd8 7fbd 17b3 40bd
000001f0: 2973 453d 5019 ce3b 824b edbc efd0 ce3d
00000200: 15fa c7bd d10e 1f3e 4648 b83d 4fef 883d
00000210: 4e70 32bd 7865 a03e b4d4 b43c e6d0 d43c
00000220: 6d21 1e3d d0b8 b1bc 0272 56be 8967 b7bd
00000230: 7b4c 9bbd 737c abbd 0f95 8f3e 4fa6 f73c
00000240: 7257 e83b c77d 4a3f 3da8 3a3e 381b fcbd
00000250: 98ec 92be 2cbf b0bd 5db2 ccbb 37cf 733e
00000260: 98eb b5bd 0a79 3d3e 154b 36bd 0a03 b2bd
00000270: fd0f 0dbd e442 0bbd 5d0a fdbc fe3f 46be
00000280: 4e32 72be 8f76 b6bd e52f 46bd e3d9 973e
00000290: 532e c2bd 6eb2 a63c b40e 0a3c 88c3 69bc
000002a0: b0e9 dcbc e788 b93e 5d5a 063d 83ab d43d
000002b0: f51b 4bbe 3084 c83c 1967 2fbd 4d0a 62bd
000002c0: 8d3d 40bd 0833 d4bc 3ec0 8c3e 9d8c 0b3d
000002d0: dae8 15bd d020 abbb 2978 063d e131 403d
000002e0: 96cb 0abd 81c9 3c3d 92e3 6abd 7fc4 a83e
000002f0: 7ef7 5c3c 4bb2 3ebd 237c 38bd 1840 1e3c
00000300: d5d5 103d 8958 323d e477 523c 8e65 0cbe
00000310: 2f0b a23e 07ac 513d d763 423d 4232 cf3c
00000320: 702a afbb aaae 8dbe 62a2 8abe f98a 1ebd
00000330: 7f67 233d e456 81bc 38b6 56bc 61fa 103d
00000340: c8a1 25bc 7279 8d3c 221a c53c 0730 e6bc
00000350: 88be 103c 886d 873d 0c99 e3bd 5088 5fbe
00000360: c8ab 00be 97c3 f0bd 4547 3bbd 1cf0 3fbe
00000370: 43e9 8bbe 41b7 8cbd 1274 44be 258e 583e
00000380: 4e62 2c3d a46f 5f3c a77e cbbc 680b 5cbc
00000390: 4abb b73c 79da 443d 8e03 ed3c 50c9 59bb
000003a0: 70fb 953b 344f 65bc b5ae 67bd 03d0 07bf
000003b0: d21f 873d 7780 863e 8d69 85be 17e6 a43d
000003c0: 34ee 37be 0a70 3cbe 2aea 9cbd f664 083d
000003d0: b7a0 a3be 6484 593c 172b 1abd 9d8c 4b3f
000003e0: eed3 3e3e 6867 d03d c1ee eabe 39ff aebd
000003f0: 73a3 c73d dbbe 96be db27 5d3c c6b5 873c

fc1.bias f4 [400]
-0.2593138 0.3662198 0.035446476 0.45664036 0.10244797 -0.45445186 0.07337974 0.19729413
0.2179213 0.2280884 -0.086640716 0.06487562 0.06966909 -0.21624646 0.049106095 0.4066652
-0.16306597 -0.080426335 0.24697438 -0.38417897 -0.4999559 -0.50319576 0.28141332 -0.2594539
0.3401304 -0.067558475 0.06102826 -0.06752384 -0.5085116 -0.486234 -0.42814198 0.11992632
-0.4656543 0.3897693 -0.39744914 0.17458218 0.03331439 0.2712521 -0.36424983 0.24242462
0.16559154 -0.2979961 0.17473508 0.26082096 0.0746686 -0.41349167 0.36146668 0.05806848
-0.06961365 0.33723986 0.21119404 -0.2861195 -0.4410186 0.41951215 0.2689825 -0.25897384
0.12661967 0.27929315 0.20285161 0.0854221 -0.45190847 -0.5526156 0.0841068 -0.41264048
-0.52523077 -0.074940085 -0.27506152 0.21276924 -0.47309703 -0.27047765 -0.41408575 -0.019301748
0.15638492 0.20678516 0.106348544 -0.5518018 -0.3175722 -0.19352022 0.11686888 -0.0971307
0.35291395 0.33774075 -0.058152106 -0.19898468 0.31109732 -0.3528734 0.09674837 -0.47868407
0.3185489 0.13303807 -0.3955187 0.010492029 0.23891796 0.16448757 0.364081 -0.35576844
0.10479183 -0.29836857 -0.17198546 0.09014317 -0.3973016 -0.15075119 0.14621253 -0.35497034
0.021157417 0.27809992 0.34468946 -0.47061455 0.27042422 -0.32957965 0.03277925 -0.3223634
-0.50709474 -0.2655806 0.091920055 0.08300022 -0.0027841162 0.08175577 0.31050897 0.04114256
-0.5554082 0.15053761 -0.2883708 0.39850372 -0.42429203 -0.51661 0.19694634 0.10070329
-0.55342025 0.16789252 0.17468275 0.08808566 0.20045424 0.028756639 0.043969296 -0.36584187
0.30581096 -0.49279177 0.09227359 0.19110973 0.31237215 -0.12118356 0.029145407 -0.24686342
0.02713071 -0.5191728 0.16437596 -0.55087614 -0.3095234 -0.30620146 0.087977394 -0.4612951
0.17276937 -0.2942892 -0.30413967 0.39270404 0.21040738 -0.45849818 -0.26923776 -0.17065355
-0.14413315 0.19642802 0.07716293 0.3521262 0.5263498 0.054144625 0.06950159 -0.18082547
-0.023045106 0.13449718 -0.2668319 0.35074386 -0.30589274 -0.20107141 -0.42648473 -0.28007978
0.24642053 -0.5023136 -0.045517318 -0.3746826 0.29822627 0.3482543 0.28730604 0.0024558238
-0.44176432 0.06420823 -0.07570092 -0.5188243 -0.43852192 -0.45815623 0.26473224 0.0312678
0.08617985 0.009950587 0.17900927 0.2286377 0.22712505 -0.37601987 -0.0712942 -0.4388687
-0.47907776 0.3633971 -0.5609738 0.12994438 0.045256633 0.194731 0.059892114 -0.33968544
0.15862246 0.08502706 -0.48157954 -0.003364406 -0.3403646 0.08460228 0.40530506 0.24576226
-0.13394848 0.21409298 0.21734416 -0.31103614 -0.23663206 0.19319591 0.08600928 0.14859158
0.22535528 0.23489621 0.4525896 0.11416208 -0.3417339 -0.2967776 0.23848471 -0.36441153
-0.3021363 -0.40578958 -0.5423882 -0.45716146 -0.5607523 0.13552894 0.3974423 0.08810551
-0.50206584 0.21164206 0.029865924 0.18885805 -0.14572516 0.19174789 -0.040807914 -0.28754935
0.06797082 0.45015627 0.029590845 0.07996305 0.26741207 0.083174765 0.2564362 -0.37795427
00000000: c7c4 84be 2981 bb3e 5330 113d c4cc e93e
00000010: 3ed0 d13d eaad e8be 1e48 963d 7907 4a3e
00000020: c326 5f3e 0190 693e b070 b1bd 82dd 843d
00000030: abae 8e3d b66f 5dbe 7923 493d 6c36 d03e
00000040: c4fa 26be 90b6 a4bd dae6 7c3e 1bb3 c4be
00000050: 38fa ffbe 70d1 00bf 6815 903e 24d7 84be
00000060: 9225 ae3e 195c 8abd c5f8 793d f049 8abd
00000070: d12d 02bf aaf3 f8be 6d35 dbbe ee9b f53d
00000080: 3e6a eebe d78f c73e 747e cbbe acc5 323e
00000090: ab74 083d 8ee1 8a3e f47e babe 293e 783e
000000a0: d490 293e f292 98be c1ed 323e 538a 853e
000000b0: daeb 983d 2eb5 d3be 2912 b93e 37d9 6d3d
000000c0: 9a91 8ebd b4aa ac3e 4043 583e 417e 92be
000000d0: 31cd e1be 4cca d63e 13b8 893e 3898 84be
000000e0: 96a8 013e 83ff 8e3e 55b8 4f3e c8f1 ae3d
000000f0: 8c60 e7be 3778 0dbf 3040 ac3d 9d45 d3be
00000100: 8675 06bf 307a 99bd ddd4 8cbe 2ee0 593e
00000110: c639 f2be 0c7c 8abe 0c03 d4be b31e 9ebc
00000120: 5e23 203e 7dbf 533e 44cd d93d e242 0dbf
00000130: d398 a2be 2a2a 46be f458 ef3d 76ec c6bd
00000140: 23b1 b43e 5bec ac3e e730 6ebd a4c2 4bbe
00000150: 2648 9f3e d3ab b4be 0224 c63d 1416 f5be
00000160: d718 a33e 223b 083e 6d81 cabe c2e6 2b3c
00000170: e9a6 743e 6e6f 283e d368 ba3e 4827 b6be
00000180: 199d d63d c4c3 98be f51c 30be fb9c b83d
00000190: 1e6b cbbe 855e 1abe bdb8 153e acbe b5be
000001a0: 5252 ad3c 1d63 8e3e 237b b03e 64f4 f0be
000001b0: 0b75 8a3e aabe a8be 8943 063d d10c a5be
000001c0: f6d0 01bf 2efa 87be 9540 bc3d 05fc a93d
000001d0: b875 36bb 926f a73d 08fb 9e3e 1a85 283d
000001e0: 3b2f 0ebf 8826 1a3e 56a5 93be ae08 cc3e
000001f0: ce3c d9be 8e40 04bf 4dac 493e 873d ce3d
00000200: f3ac 0dbf 04ec 2b3e 09e0 323e 4166 b43d
00000210: e043 4d3e 0b93 eb3c 2619 343d a04f bbbe
00000220: 4193 9c3e 344f fcbe f0f9 bc3d 45b2 433e
00000230: 3eef 9f3e 162f f8bd 59c2 ee3c c4c9 7cbe
00000240: 3941 de3c 82e8 04bf 2c52 283e 3806 0dbf
00000250: da79 9ebe 70c6 9cbe 7e2d b43d df2e ecbe
00000260: 74ea 303e 13ad 96be 32b8 9bbe 8110 c93e
00000270: 0875 573e 46c0 eabe 88d9 89be cebf 2ebe
00000280: a497 13be 6d24 493e 9907 9e3d e349 b43e
00000290: dcbe 063f c1c6 5d3d da56 8e3d 502a 39be
000002a0: 17c9 bcbc a1b9 093e 319e 88be b394 b33e
000002b0: f99d 9cbe aae5 4dbe 355c dabe 9e66 8fbe
000002c0: aa55 7c3e a097 00bf 5e70 3abd 66d6 bfbe
000002d0: 1db1 983e 634e b23e c719 933e e3f1 203b
000002e0: ef2e e2be 9b7f 833d 1509 9bbd abd1 04bf
000002f0: f285 e0be 7493 eabe fc8a 873e aa12 003d
00000300: 107f b03d c907 233c 354e 373e 0020 6a3e
00000310: 7893 683e ad85 c0be b202 92bd 66b3 e0be
00000320: ae49 f5be 2f0f ba3e fb9b 0fbf 2410 053e
00000330: 055f 393d 9067 473e 6f51 753d 40eb adbe
00000340: ed6d 223e ab22 ae3d 9891 f6be 5e7d 5cbb
00000350: 4544 aebe f643 ad3d 2584 cf3e 1aa9 7b3e
00000360: ca29 09be 313b 5b3e 788f 5e3e 2140 9fbe
00000370: ad4f 72be 26d5 453e a225 b03d 6428 183e
00000380: 89c3 663e a288 703e d3b9 e73e cfcd e93d
00000390: bff7 aebe 3cf3 97be 5635 743e 2694 babe
000003a0: 9cb1 9abe a7c3 cfbe f4d9 0abf 1111 eabe
000003b0: 768d 0fbf 19c8 0a3e 8f7d cb3e a970 b43d
000003c0: 6387 00bf b2b8 583e 62a9 f43c 0164 413e
000003d0: fa38 15be 8f59 443e 3326 27bd ab39 93be
000003e0: 4934 8b3d e27a e63e 8068 f23c abc3 a33d
000003f0: 3cea 883e 8857 aa3d 9b4b 833e 3983 c1be

fc2.weight f4 [300, 400]
0.01586609 0.03735986 0.048864406 -0.022462143 -0.013241693 0.028243892 -0.021242684 -0.017678581
-0.041812714 -0.056906752 -0.012057602 -0.0009008013 0.016155574 0.048747353 0.050530843 0.039245743
0.032455686 0.053151056 -0.007522474 -0.029845586 -0.0278131 -0.04835587 -0.020403706 0.030300193
-0.027090209 -0.042247638 0.015070699 0.05137147 -0.013512693 -0.05584768 -0.048420258 0.010133738
0.0052966997 0.0055652987 -0.04467467 0.0012217201 -0.011313178 0.0274248 0.054448076 0.032945022
0.035047043 -0.04845363 -0.0043635876 -0.04184976 -0.051088285 0.049194768 0.034414846 -0.020927794
0.0017036237 -0.058887877 -0.0023863378 -0.011578318 0.025574185 -0.032592375 -0.024282908 -0.021700691
-0.054437526 -0.031861056 0.02991657 -0.02476627 -0.0286216 0.016961768 0.04522575 -0.0455998
-0.0144317 -0.0017282218 -0.04941277 -0.058040477 0.050162114 -0.05515692 -0.05415085 -0.013161859
0.008095811 -0.02000787 0.012372629 0.027774677 -0.01403923 -0.038350202 -0.056854084 -0.033644058
-0.04633329 0.0446894 -0.05625527 0.05463077 -0.02049654 0.0207797 0.058221422 -0.05561648
0.004136552 -0.04009995 0.04968319 0.056223385 -0.01766728 0.0013856441 0.019900838 0.044553183
0.045650728 -0.04731163 -0.043688055 0.030741703 0.035012983 -0.012940988 0.05131 0.045538068
-0.025365554 -0.016705371 -0.03742017 -0.00707452 -0.022397313 -0.01541236 -0.028380388 -0.0005083792
-0.051265173 0.052853823 0.037815027 0.016149782 0.01464445 -0.02414024 -0.0038288531 0.017428854
0.043980762 -0.030805266 0.038137518 -0.053216565 0.05049216 -0.0038443469 -0.0078350855 0.042332366
-0.057283234 -0.05369363 -0.052697364 -0.0052738697 -0.012213948 -0.051928177 0.04131529 -0.04833871
-0.051237524 -0.018057592 0.032286994 0.037968308 -0.036228754 0.040099073 -0.043003082 -0.0050106496
0.022874773 0.026706852 -0.019450461 0.0015237778 0.033621937 0.017330125 0.038844638 -0.0133779235
-0.05552724 -0.0072855176 -0.026072154 -0.05133161 -0.012411789 -0.03741032 -0.03784187 -0.025079481
-0.045390833 0.022868432 0.052817017 -0.037591442 0.04470407 0.05064272 0.0094147455 0.037969857
-0.008256528 -0.03372998 0.05309844 0.01623346 0.050680093 -0.011344846 -0.057001945 -0.017681984
-0.032447584 0.032019556 -0.0049302466 -0.048238214 -0.00061141414 -0.03972606 -0.04283975 -0.033215977
0.044118322 -0.02972836 -0.02349313 0.0022989735 -0.051120955 0.0075155124 -0.0073194043 0.044180308
0.025653422 0.01343069 -0.016305095 0.0015500782 -0.02185094 -0.020247012 0.035299145 -0.04152351
0.041033648 -0.057703454 0.04708238 -0.05296756 -0.0010488054 0.011729761 0.035007447 0.05725266
-0.041743726 -0.055525217 -0.040397458 -0.025166772 -0.0040111355 0.012813232 0.030052235 0.0014357842
0.047576465 -0.054049782 -0.0043033026 -0.04816194 0.021689259 -0.016630007 0.050634228 0.040085703
-0.011943437 0.0010974249 -0.046743795 0.0063540097 -0.017295778 0.038265735 0.028072355 -0.0009620972
0.05179275 0.043066867 -0.03123675 0.055205353 -0.034294453 -0.014855283 0.03497822 0.03651142
0.013641372 0.05627568 0.041089103 0.018378993 0.046082057 0.0019619386 0.012049957 -0.036805104
0.022438511 -0.028451797 0.038410258 -0.016845694 -0.02204413 -0.04295375 -0.0121904295 0.006002441
00000000: 9af9 813c a706 193d 0b26 483d 8702 b8bc
00000010: b0f3 58bc bc5f e73c 2305 aebc acd2 90bc
00000020: cf43 2bbd 0e17 69bd 408d 45bc c023 6cba
00000030: b258 843c 4eab 473d 6ef9 4e3d 25c0 203d
00000040: 41f0 043d ecb4 593d 167f f6bb bb7e f4bc
00000050: 4cd8 e3bc ce10 46bd ac25 a7bc 1c38 f83c
00000060: 49ec ddbc dc0b 2dbd 18eb 763c e46a 523d
00000070: 5864 5dbc 89c0 64bd 5254 46bd fa07 263c
00000080: f08f ad3b 1c5d b63b c9fc 36bd 2022 a03a
00000090: e85a 39bc f9a9 e03c f204 5f3d 5cf1 063d
000000a0: 7d8d 0f3d 5077 46bd 6dfc 8ebb a76a 2bbd
000000b0: f341 51bd 7480 493d 95f6 0c3d c470 abbc
000000c0: 204c df3a 6a34 71bd 1b64 1cbb fcb2 3dbc
000000d0: f480 d13c 957f 05bd f3ec c6bc a6c5 b1bc
000000e0: e2f9 5ebd bd80 02bd 9813 f53c a2e2 cabc
000000f0: d877 eabc 68f3 8a3c a33e 393d dbc6 3abd
00000100: f072 6cbc 8085 e2ba 0b65 4abd dabb 6dbd
00000110: ca76 4d3d 39ec 61bd 48cd 5dbd d6a4 57bc
00000120: 4ba4 043c 8be7 a3bc 91b6 4a3c b887 e33c
00000130: cc04 66bc 1a15 1dbd d4df 68bd 5ace 09bd
00000140: fac7 3dbd 3b0c 373d ed6b 66bd 84c4 5f3d
00000150: 5ce8 a7bc 303a aa3c 9679 6e3d 1bce 63bd
00000160: ea8b 873b d83f 24bd 9a80 4b3d 7e4a 663d
00000170: f9ba 90bc 809e b53a 1507 a33c 667d 363d
00000180: 42fc 3a3d d7c9 41bd 3ff2 32bd 06d6 fb3c
00000190: c669 0f3d 7006 54bc 6f2a 523d 2086 3a3d
000001a0: 6ccb cfbc b4d9 88bc e445 19bd 60d1 e7bb
000001b0: 927a b7bc 2084 7cbc fd7d e8bc c044 05ba
000001c0: 6efb 51bd 407d 583d eee3 1a3d 8c4c 843c
000001d0: 46ef 6f3c c1c1 c5bc 7fed 7abb f5c6 8e3c
000001e0: 2c25 343d 535b fcbc 1636 1c3d 9df9 59bd
000001f0: ded0 4e3d 70f1 7bbb bb5e 00bc b464 2d3d
00000200: d3a1 6abd daed 5bbd 31d9 57bd 6dd0 acbb
00000210: 031d 48bc a4b2 54bd 393a 293d d0fe 45bd
00000220: 70de 51bd 84ed 93bc 5e3f 043d a884 1b3d
00000230: 9a64 14bd ed3e 243d 0024 30bd 6030 a4bb
00000240: e063 bb3c 54c8 da3c 9356 9fbc 80b9 c73a
00000250: 28b7 093d e8f7 8d3c 8e1b 1f3d 142f 5bbc
00000260: 8870 63bd 5abb eebb 4595 d5bc 1841 52bd
00000270: d15a 4bbc 903b 19bd 1400 1bbd 7c73 cdbc
00000280: bdeb 39bd 9456 bb3c a856 583d 7cf9 19bd
00000290: 9d1b 373d be6e 4f3d 4e40 1a3c 4886 1b3d
000002a0: 6346 07bc 7328 0abd c07d 593d 08fc 843c
000002b0: ee95 4f3d bcdf 39bc df7a 69bd cfd9 90bc
000002c0: c2e7 04bd f026 033d e88d a1bb 6f95 45bd
000002d0: 4f47 20ba cbb7 22bd bc78 2fbd 7a0d 08bd
000002e0: 6ab5 343d e488 f3bc aa74 c0bc 60aa 163b
000002f0: 3564 51bd b044 f63b 9dd7 efbb 69f6 343d
00000300: 2027 d23c 660c 5c3c 4392 85bc fe2b cb3a
00000310: be00 b3bc 10dd a5bc d695 103d 8e14 2abd
00000320: e612 283d 755a 6cbd 74d9 403d 83f4 58bd
00000330: 1278 89ba 2f2e 403c f863 0f3d c481 6a3d
00000340: 78fb 2abd 696e 63bd ce77 25bd 8c2a cebc
00000350: d86f 83bb 97ee 513c 1b30 f63c ec30 bc3a
00000360: 8adf 423d 4e63 5dbd b802 8dbb 7445 45bd
00000370: acad b13c a73b 88bc d665 4f3d e830 243d
00000380: 68ae 43bc 78d7 8f3a 6c76 3fbd 4c35 d03b
00000390: e0af 8dbc 88bc 1c3d fff7 e53c 4035 7cba
000003a0: a224 543d e266 303d 36e4 ffbc 021f 623d
000003b0: 5778 0cbd 9363 73bc 5245 0f3d 008d 153d
000003c0: 1080 5f3c 5481 663d 0c4d 283d 8b8f 963c
000003d0: 8ac0 3c3d de93 003b 2f6d 453c f3c0 16bd
000003e0: f8d0 b73c be13 e9bc 1354 1d3d fbff 89bc
000003f0: e495 b4bc 45f0 2fbd 5eba 47bc 20b0 c43b

fc2.bias f4 [300]
-0.016843565 -0.022869034 -0.011769208 0.0049873902 0.003442069 0.0020677594 -0.020631954 -0.011779671
0.05096368 0.0050046667 0.030487508 -0.049188513 0.04357344 -0.019850696 0.041238748 -0.017454129
0.0023533339 -0.054116838 0.00012466556 -0.0039538946 -0.047001824 -0.023414562 0.02106224 0.16282244
-0.02175654 0.056737855 0.007817702 0.0003009115 -0.022647537 0.034462422 -0.036574394 0.03919241
0.008599298 -0.010526077 -0.04759057 -0.038104303 0.047131684 -0.0049995403 -0.008589371 -0.037597455
-0.02050034 -0.056929383 -0.066396326 -0.018344961 0.023589784 0.00062896777 -0.032627888 0.016238684
0.05394279 0.075904965 0.03610322 0.054912668 -0.040773243 0.050428744 -0.031228539 -0.039962105
-0.013009369 0.03255208 -0.015820893 0.09390902 0.03420645 -0.034657054 0.031334296 -0.016936911
-0.038915835 -0.05445189 -0.029017346 0.029068291 0.13896723 -0.037087735 0.13688199 0.0017349585
0.021087768 0.11154228 -0.01669156 0.038937856 -0.055866107 0.0011757637 -0.039222974 -0.027698653
0.0729471 0.022466032 0.033926997 -0.034745038 -0.010420843 -0.011682174 0.033844292 -0.031636164
-0.0013387189 0.019840663 0.027069546 0.023311235 -0.0018189654 0.024917383 0.062532306 0.04447306
0.028032776 -1.3397617e-05 -0.047370207 -0.017020741 0.07499123 -0.0046687643 -0.043163247 0.0012516205
-0.018266737 0.043603398 -0.032345124 0.0013014694 -0.037467737 -0.043548387 -0.010065724 -0.021442002
0.055568185 -0.02880695 -0.03921644 0.06760427 -0.037256785 -0.005290235 0.007729076 -0.028267391
0.024635527 -0.022524472 -0.026240012 -0.05269742 0.029658057 -0.029074142 -0.03616598 0.0029476613
0.012193152 0.013164442 0.03787245 -0.025052594 0.054993104 -0.059989553 0.019447997 0.05603952
-0.02306177 0.023298977 0.026391903 -0.0490828 -0.017485537 -0.0133527815 -0.17415996 0.0056567807
-0.042109646 -0.048255906 0.027828868 -0.007505914 -0.003965731 0.04412248 0.09068954 -0.018742627
-0.046339408 -0.015484201 -0.03400455 0.04519918 0.07262232 -0.014833638 -0.005996008 -0.028619511
0.03545924 0.003838663 0.0247823 0.040892635 0.029384444 0.036583386 -0.027907496 -0.0063492176
-0.010767267 0.02953341 -0.031798553 0.028394576 -0.046034593 0.04938136 0.030781565 0.030792708
-0.049062807 -0.027611615 0.012150539 0.027852533 -0.025755836 0.12608734 -0.023140356 0.021463808
0.08398909 -0.00813564 0.004531285 0.003146206 -0.05335592 0.04420752 -0.016332116 -0.019707145
-0.040077906 0.035239052 0.034241553 -0.012062595 -0.0059951157 0.037760586 -0.0202252 0.06382429
-0.020901347 -0.032783955 -0.050833445 0.0030530295 -0.03612131 -0.029459752 0.064593576 0.038312867
-0.03251821 0.11534401 -0.04565024 -0.017663108 -0.05908396 0.0046111434 -0.049404703 0.027265443
0.06216764 0.030648895 0.00070028123 -0.033040553 0.042487 -0.005869424 -0.07890348 -0.06557295
0.028711466 0.022586236 0.0028756007 -0.036095656 -0.026446657 -0.007094497 0.07403982 -0.012779257
-0.019575197 -0.0105953 -0.014671982 -0.006755335 0.039406657 0.034762006 0.018764274 -0.053525977
0.0011637856 0.006394048 -0.006807743 -0.048202083 0.020858278 -0.012073934 -0.03586417 0.0056013633
0.023760878 -0.050449338 -0.04072699 -0.036066826 0.08657428 0.049768057 -0.05072186 -0.011273962
00000000: 84fb 89bc d757 bbbc a3d3 40bc 436d a33b
00000010: 5694 613b 3f83 073b 5804 a9bc 85ff 40bc
00000020: 4bbf 503d 30fe a33b f0c0 f93c e579 49bd
00000030: 107a 323d ed9d a2bc f6e9 283d f6fb 8ebc
00000040: 643a 1a3b 9ea9 5dbd a8b8 0239 ac8f 81bb
00000050: fc84 40bd e5cf bfbc b88a ac3c edba 263e
00000060: c53a b2bc f465 683d d215 003c a8c3 9d39
00000070: 5487 b9bc 7828 0d3d 08cf 15bd 3888 203d
00000080: 12e4 0c3c 9175 2cbc 54ee 42bd 4213 1cbd
00000090: 270d 413d 2fd3 a3bb 6fba 0cbc caff 19bd
000000a0: 54f0 a7bc c92e 69bd ccfa 87bd 2c48 96bc
000000b0: 5d3f c13c 50e1 243a d2a4 05bd fd06 853c
000000c0: 1df3 5c3d 1074 9b3d f8e0 133d 1bec 603d
000000d0: d801 27bd 5f8e 4e3d fed2 ffbc 4eaf 23bd
000000e0: 4025 55bc 5455 053d d19a 81bc 5f53 c03d
000000f0: 101c 0c3d 8ef4 0dbd 6458 003d 47bf 8abc
00000100: 3666 1fbd f208 5fbd c9b5 edbc a020 ee3c
00000110: 6d4d 0e3e 4fe9 17bd cb2a 0c3e 8c67 e33a
00000120: 41c0 ac3c 4770 e43d bdbc 88bc 4d7d 1f3d
00000130: dcd3 64bd 151c 9a3a 45a8 20bd 49e8 e2bc
00000140: 4a65 953d af0a b83c 09f7 0a3d d050 0ebd
00000150: 2fbc 2abc 9766 3fbc 50a0 0a3d ec94 01bd
00000160: f477 afba e388 a23c f4c0 dd3c 34f7 be3c
00000170: 5a6a eeba 8a1f cc3c f010 803d 6229 363d
00000180: fea4 e53c 54c6 60b7 4307 42bd 156f 8bbc
00000190: 0195 993d 6ffc 98bb f2cb 30bd 6a0d a43a
000001a0: 20a4 95bc 7a99 323d 527c 04bd 1196 aa3a
000001b0: c577 19bd cb5f 32bd b5ea 24bc 23a7 afbc
000001c0: 779b 633d 8efc ebbc 6ba1 20bd 1c74 8a3d
000001d0: 929a 18bd b559 adbb 3044 fd3b 0491 e7bc
000001e0: 72d0 c93c 3e85 b8bc 4bf5 d6bc 40d9 57bd
000001f0: 74f5 f23c e52c eebc c722 14bd 8d2d 413b
00000200: c9c5 473c acaf 573c 2420 1b3d 193b cdbc
00000210: 7340 613d 9bb7 75bd 6851 9f3c b289 653d
00000220: 09ec bcbc 7fdd be3c d533 d83c 0c0b 49bd
00000230: d43d 8fbc a0c5 5abc fd56 32be 845c b93b
00000240: 2a7b 2cbd fca7 45bd 5ef9 e33c 2cf4 f5bb
00000250: f6f2 81bb c6b9 343d 70bb b93d 238a 99bc
00000260: 64ce 3dbd 72b1 7dbc 5b48 0bbd c622 393d
00000270: 03bb 943d ca08 73bc 297a c4bb 7773 eabc
00000280: b53d 113d 1492 7b3b 4004 cb3c 097f 273d
00000290: a5b7 f03c 76d8 153d 439e e4bc 190d d0bb
000002a0: 3169 30bc 0df0 f13c 333f 02bd be9b e83c
000002b0: c58e 3cbd 1c44 4a3d 9f29 fc3c fd40 fc3c
000002c0: 15f6 48bd c131 e2bc 0e13 473c ff2a e43c
000002d0: e7fd d2bc 0a1d 013e d890 bdbc ded4 af3c
000002e0: 7902 ac3d 594b 05bc 2c7b 943b 9430 4e3b
000002f0: bd8b 5abd f212 353d eeca 85bc e170 a1bc
00000300: bb28 24bd d356 103d df40 0c3d 31a2 45bc
00000310: ad72 c4bb d8aa 1a3d 52af a5bc 4fb6 823d
00000320: 4d39 abbc 7848 06bd bb36 50bd 5615 483b
00000330: f0f3 13bd 9455 f1bc a349 843d f4ed 1c3d
00000340: d131 05bd 7b39 ec3d bffb 3abd 39b2 90bc
00000350: 0602 72bd 1319 973b 965c 4abd c75b df3c
00000360: 7fa3 7e3d 6413 fb3c 1493 373a 8855 07bd
00000370: d906 2e3d 4c54 c0bb 2698 a1bd 1c4b 86bd
00000380: 4f34 eb3c c506 b93c 9374 3c3b 0ad9 13bd
00000390: a9a6 d8bc f478 e8bb 30a2 973d 1760 51bc
000003a0: 2a5c a0bc e997 2dbc c162 70bc db5b ddbb
000003b0: e068 213d 9b62 0e3d 89b7 993c 0e3e 5bbd
000003c0: 2a8a 983a 2a85 d13b 7d13 dfbb 8c6f 45bd
000003d0: fbde aa3c c0d1 45bc 4fe6 12bd a48b b73b
000003e0: 2ca6 c23c f7a3 4ebd 58d1 26bd cfba 13bd
000003f0: db4d b13d 97d9 4b3d bac1 4fbd 6db6 38bc

fc3.weight f4 [1, 300]
0.0034182316 -0.73142415 0.09718048 -0.38194826 -0.0012923197 0.94565564 -1.1150575 -0.29788414
-0.6947796 -1.315684 -1.1384919 -0.8783913 -0.0008817339 -0.28434497 -0.86189294 -0.0011657545
-0.8286737 -0.15641606 -0.43335947 -0.58947474 -0.2577304 -0.4968703 -0.51472294 0.19161111
-0.25122967 -0.5912928 -0.49950004 -0.90577424 -0.19608432 -0.90778565 0.00043545663 -0.18939947
-0.7516097 -0.5756284 -0.6322958 -0.45560095 -0.3198322 0.0004229592 -0.30710328 -0.0007333399
-0.33160698 -0.5430129 -0.6586529 -0.0040771035 0.09251533 -0.46863264 -1.1733073 -0.25865868
0.23408009 0.16493599 0.1732699 -0.23265027 -1.0043358 -0.2922899 -0.41000336 -0.0020565856
0.002507689 -0.5474831 -0.6905916 -0.24039105 -0.17759448 -0.5781085 -1.6352957 0.00047795105
-0.5757461 -1.0701421 -0.4549914 -0.2746711 0.13162808 -0.46094945 0.14544626 0.0014354596
-0.12256738 0.46183607 -0.66976345 -0.3406782 -0.80133027 -0.9741271 -0.9834362 -0.21376185
0.14129953 -0.31177685 0.002087194 -0.7452974 -0.0019347919 -0.7638847 -0.26085597 -0.0007510211
0.00074338785 -0.50881284 -0.587674 -0.00049889047 -1.0946131 -0.3696296 0.14199832 -0.27457708
-0.17284968 -0.4589174 0.0016617428 -1.0367273 -0.3325635 -0.31246927 0.0007595676 -1.2194294
-0.6472761 -0.41454327 -0.0024546483 -0.26393703 -0.00041760926 -0.0001027066 0.0023931812 -0.92341584
-0.3191856 -0.4730953 0.0010333312 -0.38786146 -0.5536238 -0.52676576 -0.0019245106 -0.61704123
-0.7890028 -0.61241263 -0.0002441939 0.17475508 -0.30149248 0.35331646 -0.11475807 -0.7607732
0.002246794 -0.34800696 0.0032053317 0.0020149213 -0.5442089 -0.21762522 -0.6199205 -0.78298396
-0.24897608 -0.5470659 -0.00065379834 -0.5908574 -0.0014468336 -0.88449657 -0.4006882 -0.4739463
0.0005188412 -0.6072014 -0.64069897 -0.249989 -1.2422175 -0.6728855 -0.21743186 0.00043157203
-0.7378873 -0.81629556 0.050568767 -0.37695017 0.13474262 -1.3509398 -0.56048524 -0.7311623
-0.509032 0.0007764141 -0.8445153 0.35863203 -1.111949 -0.40047958 -0.0035767355 -0.70847964
-0.26815394 -0.4750218 -0.7018957 0.076694496 0.0012223865 -0.18865478 -0.50459665 -0.30834374
-0.5876977 -0.27794236 0.0018538589 -0.43823755 -0.60316104 0.15548071 -0.22224355 -0.52125573
-0.26263043 0.0010651788 -0.84656835 0.0014569787 0.0016895987 -1.0149826 -1.2268946 -0.99591315
-0.4198968 0.25487685 -1.6834029 -0.6993505 -0.91955155 -0.78561616 -0.7751061 0.16354044
0.0043548103 0.00058755605 -0.00048250804 -0.03172619 -0.0017605157 0.00025790825 -0.4666899 0.0015945457
0.20972742 0.15963565 -0.48187354 -0.3147201 -0.539435 0.26015294 -0.5045311 0.0021610286
0.55059785 -0.0032452473 -0.7760142 -0.50420743 -0.35309687 -0.1708679 -0.42801598 -0.53324383
-0.51894504 -0.68380463 -0.8140103 -0.7636087 -0.68907547 -0.3549599 -0.23191874 -0.3490863
-1.0154566 -0.39234084 -0.7257672 -0.94000584 -0.21540284 -0.24157314 -0.61598307 -0.61936724
-0.30648658 -0.32877597 -0.019197682 -0.22845353 0.23384215 -0.00024270896 -0.79988444 0.0027808931
-0.6266043 -0.0017332669 -0.0006999656 -0.5868531 0.13372932 0.2441405 0.3302034 0.002287258
00000000: 6904 603b 9d3e 3bbf 8f06 c73d b98e c3be
00000010: 0e63 a9ba 7d16 723f 34ba 8ebf 4584 98be
00000020: 13dd 31bf 5568 a8bf 1aba 91bf 41de 60bf
00000030: 2924 67ba aa95 91be 04a5 5cbf 3bcc 98ba
00000040: f623 54bf 882b 20be 4be1 ddbe d1e7 16bf
00000050: 3df5 83be c965 febe e2c4 03bf b435 443e
00000060: 2da1 80be f75e 17bf 78be ffbe d2e0 67bf
00000070: 54ca 48be a464 68bf 004e e439 eff1 41be
00000080: 7e69 40bf 625c 13bf 23de 21bf 8744 e9be
00000090: 0cc1 a3be 9fc0 dd39 a43c 9dbe 9c3d 40ba
000000a0: 64c8 a9be e502 0bbf 7a9d 28bf 3999 85bb
000000b0: ad78 bd3d 9ef0 efbe ef2e 96bf e96e 84be
000000c0: b1b2 6f3e fbe4 283e aa6d 313e df3b 6ebe
000000d0: 138e 80bf 06a7 95be f6eb d1be c8c7 06bb
000000e0: 0a58 243b da27 0cbf 9cca 30bf 1229 76be
000000f0: 54db 35be ebfe 13bf 5f51 d1bf 8195 fa39
00000100: 1964 13bf 6bfa 88bf a2f4 e8be b1a1 8cbe
00000110: 83c9 063e 9101 ecbe ddef 143e 0826 bc3a
00000120: 9b04 fbbd c775 ec3e 9e75 2bbf 5f6d aebe
00000130: fb23 4dbf 6560 79bf 7ac2 7bbf 63e4 5abe
00000140: d3b0 103e 37a1 9fbe 4ec9 083b cfcb 3ebf
00000150: d898 fdba f38d 43bf ea8e 85be 2ce0 44ba
00000160: eadf 423a 8f41 02bf ce71 16bf f9c7 02ba
00000170: 481c 8cbf 1740 bdbe 0268 113e 5e95 8cbe
00000180: 82ff 30be 39f7 eabe d6ce d93a 7bb3 84bf
00000190: c345 aabe f9fb 9fbe b81d 473a 4316 9cbf
000001a0: e3b3 25bf 043f d4be 2ade 20bb c122 87be
000001b0: 91f2 dab9 3064 d7b8 ebd6 1c3b fb64 6cbf
000001c0: 4c6c a3be 8c39 f2be d770 873a c795 c6be
000001d0: 4aba 0dbf 1fda 06bf dc3f fcba 6af6 1dbf
000001e0: 16fc 49bf 13c7 1cbf 2707 80b9 fff2 323e
000001f0: 395d 9abe e5e5 b43e 4706 ebbd 08c2 42bf
00000200: f33e 133b f82d b2be 8b10 523b c50c 043b
00000210: 4651 0bbf 25d9 5ebe 1cb3 1ebf a371 48bf
00000220: 96f3 7ebe 830c 0cbf aa63 2bba 6e42 17bf
00000230: aea3 bdba 5e6e 62bf 0127 cdbe 17a9 f2be
00000240: d802 083a 8d71 1bbf d904 24bf 1efd 7fbe
00000250: fc00 9fbf 3942 2cbf 75a6 5ebe 9e44 e239
00000260: 2fe6 3cbf bff8 50bf 3221 4f3d 9dff c0be
00000270: f8f9 093e 98eb acbf f67b 0fbf 742d 3bbf
00000280: ec4f 02bf 4588 4b3a 2832 58bf 9e9e b73e
00000290: 5854 8ebf a90b cdbe aa67 6abb ec5e 35bf
000002a0: 794b 89be 0f36 f3be 70af 33bf 0112 9d3d
000002b0: 7c38 a03a b82e 41be 3f2d 01bf 3bdf 9dbe
000002c0: 5b73 16bf 764e 8ebe 2ffd f23a ac60 e0be
000002d0: c368 1abf 5636 1f3e d093 63be 0471 05bf
000002e0: 7f77 86be 789d 8b3a b4b8 58bf 18f8 be3a
000002f0: 8675 dd3a f3ea 81bf e20a 9dbf 2af4 7ebf
00000300: b7fc d6be 387f 823e bf79 d7bf a208 33bf
00000310: bb67 6bbf 241e 49bf 5a6d 46bf 2577 273e
00000320: ccb2 8e3b 3806 1a3a 22f9 fcb9 52f3 01bd
00000330: 1bc1 e6ba dc37 8739 fbf1 eebe 1300 d13a
00000340: c9c2 563e 8777 233e 21b8 f6be fe22 a1be
00000350: 6a18 0abf c432 853e f328 01bf 0ba0 0d3b
00000360: fbf3 0c3f 37ae 54bb dea8 46bf bd13 01bf
00000370: 1dc9 b4be fff7 2ebe e924 dbbe ab82 08bf
00000380: 95d9 04bf d20d 2fbf fb62 50bf dc7b 43bf
00000390: 4067 30bf 4ebd b5be 1b7c 6dbe 71bb b2be
000003a0: 7bfa 81bf e6e0 c8be e1cb 39bf 39a4 70bf
000003b0: 9092 5cbe f35e 77be 11b1 1dbf da8e 1ebf
000003c0: cfeb 9cbe 5355 a8be 7544 9dbc b9ef 69be
000003d0: 5174 6f3e b17f 7eb9 3ac5 4cbf a53f 363b
000003e0: 2469 20bf c92e e3ba e57d 37ba 013c 16bf
000003f0: 57f0 083e f8ff 793e 6c10 a93e d2e5 153b
